anger_model.pth (torch, 937938 bytes, 36 tensors)

weight f4 [64, 11, 3, 3]
0.20332332 0.057579655 0.25992492 0.085724846 0.16689606 0.21504831 0.123170786 0.1400213
0.07344449 0.013078248 0.08541542 0.12506743 0.13316831 0.06194101 0.124932796 0.15392381
0.09995661 0.18343996 0.096936755 -0.0092370175 0.040944204 -0.019022224 -0.115304105 0.077344924
0.017656649 0.06274335 0.012578497 0.11541725 0.13537133 0.08732193 0.118838444 0.15432324
-0.014266638 0.03057205 0.0583695 -0.007304572 -0.0010453511 0.082921684 0.0031152545 0.12708852
0.10182062 0.005462965 0.09365426 0.15559341 -0.0150833335 0.14190853 0.00718512 0.040257953
-0.011803481 -0.015987577 -0.007108419 0.07672732 -0.00895416 0.08207591 -0.13241477 -0.08670804
-0.091467276 -0.12033217 -0.089750186 0.021877382 -0.052248556 0.010826782 0.029615546 0.07780087
0.034334455 -0.10557934 0.09236452 0.014946726 0.0862338 0.072803535 -0.048553664 0.02729497
-0.00012106536 -0.13955815 -0.17421252 -0.15219149 -0.063987084 -0.062619336 -0.12090162 -0.13856885
0.0020066835 -0.08030532 0.0353221 0.044922374 0.0491908 0.026866062 -0.12703694 -0.004520137
0.013798632 -0.10226391 0.22254542 0.15066555 0.20114331 0.12871824 0.09150937 0.032322764
0.036798943 0.04753618 0.15897669 0.041248187 0.12291666 0.14879885 0.048174985 -0.005900715
0.1667788 0.15106519 0.052772317 -0.012942522 0.03413412 0.13342059 0.17828827 0.060539357
0.021126484 0.18109186 0.0937727 0.021815814 0.14108199 0.10464289 0.03850017 0.12923083
-0.016739078 0.07227578 -0.01745402 -0.04494156 0.060007714 0.07396564 0.10657833 0.09275716
0.18991308 0.1909598 0.026751135 0.029323345 0.0020174284 0.0046319887 0.053668115 -0.06472665
-0.004174266 0.05654542 -0.006388349 -0.03389097 -0.10692879 -0.027145475 0.017601436 0.018705962
0.107414484 0.07327548 0.14448623 0.08129961 0.07828197 0.031047817 0.02858894 0.0103522735
0.09029758 0.047143225 0.14870492 0.087942965 0.19814202 0.009811106 0.15587927 0.16481832
0.050859153 0.108206384 -0.0013770722 -0.074627325 -0.11052712 -0.03117893 0.0852956 0.0049442174
-0.10305597 -0.054223128 -0.026745265 -0.0778946 -0.029329864 0.03849782 -0.032230776 -0.0023492614
-0.046000376 0.0272482 0.045027345 -0.0147216525 0.035105724 0.13759689 0.1282955 0.103052795
0.046952803 0.14786425 0.011213281 0.1417455 0.091196075 0.13944677 0.054207083 0.13050391
0.12773088 0.03340548 0.14560068 0.068869844 0.15215462 0.18550238 0.016852213 -0.015388088
0.0013142434 -0.06410626 -0.021273794 -0.008966018 -0.07636459 0.039761145 0.0074549234 -0.012207307
-0.096100055 0.08441611 0.09378043 -0.04509649 -0.035534546 0.060475513 -0.016587371 -0.04884571
0.06933373 -0.002138421 -0.07090763 0.06221903 0.05858069 0.018101105 0.111976676 -0.08597255
0.047486573 0.0022228651 0.09244777 0.015331874 -0.047510143 -0.021357201 -0.013648675 -0.0072835227
0.051149506 -0.04816383 -0.0076281116 0.11978492 0.12373938 -0.01724199 0.07013137 0.028441798
0.007944774 0.014666282 0.061482895 -0.11277579 -0.043123096 -0.14471605 -0.006893635 -0.069643386
-0.088677384 -0.11882021 -0.1949581 0.00890604 0.14744733 0.13693821 0.07441301 0.16299278
00000000: fd33 503e a5d8 6b3d e114 853e 8290 af3d
00000010: cde6 2a3e a035 5c3e f740 fc3d be61 0f3e
00000020: 116a 963d 2646 563c 48ee ae3d ad11 003e
00000030: 465d 083e dbb5 7d3d c4dc ff3d 349e 1d3e
00000040: 0db6 cc3d afd7 3b3e c786 c63d dc56 17bc
00000050: 1cb5 273d 7fd4 9bbc 8f24 ecbd 0467 9e3d
00000060: ada4 903c 967f 803d 0a16 4e3c e15f ec3d
00000070: c89e 0a3e d7d5 b23d 9261 f33d e906 1e3e
00000080: 9ebe 69bc 3c72 fa3c db14 6f3d 315b efbb
00000090: 2a04 89ba d8d2 a93d 4c29 4c3b 7e23 023e
000000a0: 5487 d03d ac02 b33b cecd bf3d e153 1f3e
000000b0: 1620 77bc 7850 113e 2871 eb3b 86e5 243d
000000c0: 6363 41bc 61f8 82bc beed e8bb 3723 9d3d
000000d0: 78b4 12bc 6a17 a83d bd97 07be fc93 b1bd
000000e0: 3253 bbbd b670 f6bd f2ce b7bd 3238 b33c
000000f0: 9502 56bd d162 313c 4d9c f23c 1056 9f3d
00000100: 49a2 0c3d fb39 d8bd 9c29 bd3d 1de3 743c
00000110: 599b b03d 051a 953d 35e0 46bd b399 df3c
00000120: 78e4 fdb8 55e8 0ebe c464 32be 16d8 1bbe
00000130: a90b 83bd 913e 80bd 459b f7bd fee4 0dbe
00000140: 9082 033b 1e77 a4bd e8ad 103d 8600 383d
00000150: 4b7c 493d 3716 dc3c f915 02be a81d 94bb
00000160: a813 623c be6f d1bd f2e2 633e 1248 1a3e
00000170: 83f8 4d3e b7ce 033e 4469 bb3d e064 043d
00000180: 7dba 163d 4cb5 423d c9ca 223e dcf3 283d
00000190: bbbb fb3d ba5e 183e 2253 453d c95a c1bb
000001a0: 10c8 2a3e d5b0 1a3e c927 583d df0c 54bc
000001b0: 38d0 0b3d 689f 083e 3391 363e 1ef8 773d
000001c0: 7311 ad3c 2570 393e e70b c03d 14b7 b23c
000001d0: cc77 103e 034f d63d 5bb2 1d3d 1655 043e
000001e0: 6420 89bc 5305 943d bcfb 8ebc a414 38bd
000001f0: a6ca 753d 4c7b 973d bd45 da3d 77f7 bd3d
00000200: 9378 423e f78a 433e 3225 db3c 8337 f03c
00000210: d536 043b f0c7 973b 19d3 5b3d 688f 84bd
00000220: 48c8 88bb 2c9c 673d 5b55 d1bb 42d1 0abd
00000230: 7bfd dabd 3060 debc e330 903c 3f3d 993c
00000240: 20fc db3d 7411 963d 33f4 133e 6980 a63d
00000250: 4c52 a03d fe57 fe3c 5a33 ea3c 959c 293c
00000260: f0ed b83d 4119 413d 1a46 183e 711b b43d
00000270: bee5 4a3e c3be 203c d19e 1f3e 22c6 283e
00000280: b051 503d 4f9b dd3d e07e b4ba 36d6 98bd
00000290: 0b5c e2bd f56a ffbc 76af ae3d 1a03 a23b
000002a0: 020f d3bd 1219 5ebd e318 dbbc 3487 9fbd
000002b0: 2f45 f0bc e4af 1d3d 6b04 04bd 11f6 19bb
000002c0: e46a 3cbd 9e37 df3c 986e 383d 1633 71bc
000002d0: 05cb 0f3d 33e6 0c3e e55f 033e 580d d33d
000002e0: 9551 403d ba69 173e e9b7 373c bb25 113e
000002f0: 02c5 ba3d 22cb 0e3e 3f08 5e3d d1a2 053e
00000300: e2cb 023e 2fd4 083d 5818 153e a20b 8d3d
00000310: 6cce 1b3e 56f4 3d3e a70d 8a3c 521e 7cbc
00000320: b142 ac3a 254a 83bd 6146 aebc 35e6 12bc
00000330: 0a65 9cbd 95dc 223d 6e48 f43b 2801 48bc
00000340: 1bd0 c4bd 5ae2 ac3d f40f c03d 19b7 38bd
00000350: ac8c 11bd 2cb5 773d 3de2 87bc 7012 48bd
00000360: d8fe 8d3d c024 0cbb 0538 91bd 62d9 7e3d
00000370: 4ef2 6f3d c548 943c 0754 e53d 6012 b0bd
00000380: 4881 423d 7dad 113b 4255 bd3d 8a32 7b3c
00000390: ff99 42bd 4cf5 aebc b19e 5fbc 9eaa eebb
000003a0: 2582 513d 7047 45bd 3df5 f9bb cc51 f53d
000003b0: 126b fd3d 133f 8dbc 09a1 8f3d c6fe e83c
000003c0: cc2a 023c d84a 703c 7dd5 7b3d fef6 e6bd
000003d0: d8a1 30bd 7230 14be 00e4 e1bb 31a1 8ebd
000003e0: 7d9c b5bd 0358 f3bd 19a3 47be a4ea 113c
000003f0: 6ffc 163e 8839 0c3e d965 983d 94e7 263e

weight f4 [64]
0.8870611 0.69108534 0.82207584 0.8526073 0.945444 0.7731363 0.8808937 0.936561
1.0322014 0.64733106 0.9340496 0.87889475 0.8946122 0.9137399 0.7796522 0.79735327
0.9910721 0.74849117 0.8357116 0.9033326 0.92398506 0.80473584 0.99910367 1.0179566
0.945403 0.9888807 0.8226371 0.8723738 0.88441914 0.9326882 0.8052384 0.8043507
0.95827866 0.924485 1.0872394 0.82731444 1.0842652 0.9547727 0.9253313 0.9737078
0.6813473 0.80672467 0.8893053 0.93068475 0.9665924 1.0626119 0.78788316 0.73508364
0.9493846 0.8175298 1.0525424 0.7657274 1.0567914 0.9416515 0.95462143 1.0049585
0.9806339 0.85514474 0.82107013 0.8902265 0.7816962 0.8812135 0.8875944 0.8890977
00000000: 7016 633f f8ea 303f 9073 523f 7944 5a3f
00000010: 9e08 723f 43ec 453f 4082 613f 76c2 6f3f
00000020: 2d1f 843f 7db7 253f e01d 6f3f 3fff 603f
00000030: 4e05 653f dcea 693f 4997 473f 581f 4c3f
00000040: e7b6 7d3f 1e9d 3f3f 32f1 553f ce40 673f
00000050: 498a 6c3f 2b03 4e3f 42c5 7f3f 674c 823f
00000060: ee05 723f 4927 7d3f 5898 523f e453 5f3f
00000070: 4b69 623f a7c4 6e3f 1b24 4e3f ede9 4d3f
00000080: c051 753f 0dab 6c3f a92a 8b3f e1ca 533f
00000090: 34c9 8a3f fc6b 743f 83e2 6c3f ea44 793f
000000a0: c76c 2e3f 8285 4e3f 83a9 633f 5b41 6e3f
000000b0: 9972 773f ab03 883f b6b2 493f 712e 3c3f
000000c0: df0a 733f a249 513f b6b9 863f b606 443f
000000d0: f144 873f 1310 713f 1262 743f 7ba2 803f
000000e0: d30a 7b3f c4ea 5a3f a731 523f e2e5 633f
000000f0: 3e1d 483f 3597 613f 6339 633f e89b 633f

bias f4 [64]
-0.194683 -0.15240185 -0.15239616 -0.12403471 -0.07269501 -0.16840208 -0.19452305 -0.0072317612
-0.046159364 -0.2826311 0.04134595 -0.111601524 -0.18231289 -0.07838982 -0.23388055 -0.16688153
0.009537331 -0.22230442 -0.15230963 -0.01176159 -0.18355514 -0.047391348 -0.059113253 0.022449587
-0.046808645 -0.07650694 -0.138039 -0.15054603 -0.25048614 -0.1006668 -0.12889895 -0.20214953
0.008505747 -0.028158588 -0.07999584 -0.05778371 -0.07631999 -0.12002445 -0.15346262 -0.02191728
-0.26800725 -0.09593166 -0.16369833 -0.13094653 0.033166066 -0.09124505 -0.19965158 -0.22354388
0.018070243 -0.15093748 -0.076891996 -0.21120065 0.040104438 -0.12560752 -0.15991509 -0.011484852
-0.14683874 -0.037928406 -0.18749352 -0.12197421 -0.24504218 -0.11135853 -0.19962196 -0.057617296
00000000: fb5a 47be 3b0f 1cbe bd0d 1cbe e905 febd
00000010: 1fe1 94bd 9871 2cbe 0d31 47be 69f8 ecbb
00000020: 9a11 3dbd 06b5 90be 5f5a 293d 578f e4bd
00000030: 3bb0 3abe d88a a0bd 627e 6fbe fee2 2abe
00000040: 7742 1c3c c5a3 63be 0ef7 1bbe afb3 40bc
00000050: e1f5 3bbe 6e1d 42bd bd20 72bd 32e8 b73c
00000060: 6cba 3fbd acaf 9cbd 185a 0dbe bd28 1abe
00000070: b83f 80be 652a cebd 16fe 03be 4900 4fbe
00000080: b05b 0b3c d7ac e6bc dcd4 a3bd 9dae 6cbd
00000090: a84d 9cbd 61cf f5bd 4e25 1dbe de8b b3bc
000000a0: 3f38 89be d177 c4bd 89a0 27be d916 06be
000000b0: 24d9 073d afde babd 7771 4cbe b0e8 64be
000000c0: 0c08 943c 5b8f 1abe 8d79 9dbd fc44 58be
000000d0: 8d44 243d 429f 00be c8c0 23be f62a 3cbc
000000e0: e55c 16be d15a 1bbd 4dfe 3fbe 9dcd f9bd
000000f0: 56ec 7abe f10f e4bd b369 4cbe 1d00 6cbd

running_mean f4 [64]
-0.06493918 -0.020503867 0.05786466 0.04488297 -0.13974382 -0.053630732 -0.024476264 -0.018656673
-0.007580349 -0.12933466 0.035574667 0.11079251 -0.13105172 -0.049064323 0.10427837 0.010576047
-0.037372064 0.13258074 0.020743523 0.11021217 0.075202376 -0.030962318 0.062166188 -0.101445675
-0.024494838 -0.09055378 0.023821132 -0.08728345 0.0634339 9.433366e-06 0.08060441 0.05911215
0.002784703 -0.062048443 -0.024321634 0.06307954 -0.04541534 0.08812335 -0.056521196 0.0020814948
0.06654938 -0.0053088665 0.054291695 0.01260886 0.037523117 0.012873183 -0.019569183 -0.084258586
0.055607017 0.11070042 0.04190038 0.058002815 -0.022634115 -0.09912504 0.11790007 -0.06820875
-0.02759106 -0.0073762834 0.05842808 0.036973655 -0.05710447 0.059705198 -0.12561393 -0.049559023
00000000: d5fe 84bd baf7 a7bc 7e03 6d3d 35d7 373d
00000010: 0119 0fbe e6ab 5bbd 7282 c8bc e1d5 98bc
00000020: 9464 f8bb 4e70 04be beb6 113d 2fe7 e23d
00000030: 6c32 06be acf7 48bd e68f d53d 2847 2d3c
00000040: 7313 19bd 3fc3 073e 52ee a93c ebb6 e13d
00000050: b403 9a3d b0a4 fdbc f9a1 7e3d c0c2 cfbd
00000060: 66a9 c8bc 4374 b9bd 8924 c33c aac1 b2bd
00000070: a2e9 813d 0044 1e37 ed13 a53d 951f 723d
00000080: 907f 363b 8226 7ebd 2a3e c7bc d92f 813d
00000090: 7005 3abd 047a b43d c582 67bd b069 083b
000000a0: 0b4b 883d 00f6 adbb f860 5e3d 6495 4e3c
000000b0: d7b1 193d 0bea 523c 8d4f a0bc c48f acbd
000000c0: 2fc4 633d e7b6 e23d bc9f 2b3d 5c94 6d3d
000000d0: 2e6b b9bc 1202 cbbd 9875 f13d 07b1 8bbd
000000e0: a606 e2bc c0b4 f1bb 4852 6f3d b071 173d
000000f0: 60e6 69bd 708d 743d f0a0 00be 67fe 4abd

running_var f4 [64]
6.160652 5.604315 3.015295 3.7929456 7.3650045 6.508019 5.920703 5.912942
4.2496085 5.5756397 3.8422096 3.245209 7.9596796 5.5218945 5.5677276 3.1382947
4.583177 5.2377844 4.724106 8.656202 5.4048843 3.9261968 8.058819 5.7924857
11.726266 10.005279 4.424644 7.0856276 5.9170628 3.8205914 4.3995137 8.011738
5.680426 7.046762 4.7670884 8.365173 2.8646317 4.8151693 8.589642 7.045255
5.598349 3.6395202 7.213304 9.599515 6.6225195 5.8036895 11.924057 4.8227077
4.636714 7.540137 9.194802 6.3288836 5.2852745 4.099941 5.6587014 11.565829
9.29308 8.595191 5.486104 9.434542 6.534121 4.071025 13.131378 5.2293053
00000000: 1024 c540 8c56 b340 98fa 4040 9fbf 7240
00000010: 1eae eb40 b141 d040 6676 bd40 d236 bd40
00000020: cbfc 8740 a46b b240 c3e6 7540 81b1 4f40
00000030: b2b5 fe40 5cb3 b040 d32a b240 d2d9 4840
00000040: 63a9 9240 ee9b a740 e02b 9740 ce7f 0a41
00000050: d0f4 ac40 cf46 7b40 ecf0 0041 0b5c b940
00000060: c99e 3b41 9f15 2041 af96 8d40 76bd e240
00000070: 9458 bd40 9284 7440 d1c8 8c40 1430 0041
00000080: 0dc6 b540 137f e140 fd8b 9840 c0d7 0541
00000090: 2056 3740 de15 9a40 2c6f 0941 bb72 e140
000000a0: ad25 b340 e6ed 6840 63d3 e640 9d97 1941
000000b0: aeeb d340 d3b7 b940 f0c8 3e41 9f53 9a40
000000c0: f65f 9440 cd48 f140 e91d 1341 3786 ca40
000000d0: f820 a940 b732 8340 1514 b540 a30d 3941
000000e0: 75b0 1441 e785 0941 2a8e af40 e2f3 1641
000000f0: 8517 d140 d645 8240 201a 5241 7856 a740

weight f4 [64, 64, 3, 3]
0.039352186 -0.009538564 -0.024037074 -0.025237799 0.040388953 0.016821425 0.027529439 0.001950894
0.0543891 0.10584024 0.11915919 0.10666683 0.11662305 0.08859978 0.08710535 0.08345353
0.09085909 0.086410746 0.054716095 0.09249728 0.07353756 0.100905426 0.06547823 0.09401698
0.08964053 0.06995421 0.03422921 0.035314012 0.057867374 -0.023137981 0.00079020264 0.007923052
-0.018023392 0.0069353366 0.015819639 0.0106071485 0.015131047 -0.03226718 0.01233181 -0.052916836
0.0039653014 -0.004036121 -0.04911319 -0.012204086 -0.023223523 0.11054127 0.117403895 0.06654699
0.08239929 0.04458076 0.11755016 0.06594084 0.06700952 0.0540493 -0.039944682 -0.053999577
0.0008055552 -0.08086764 -0.089673735 -0.057358433 -0.032383543 -0.027119286 -0.053612303 0.06436611
0.04005093 0.1047053 0.0364405 0.056261387 0.016973514 0.03968433 0.05868935 0.028003229
-0.08188181 -0.050453756 -0.06952155 -0.016462918 -0.076133475 -0.030579962 -0.060293525 -0.0576318
-0.055044692 0.05852076 -0.025661262 0.050122615 0.03169627 0.028182779 0.016044281 0.01906327
0.013603611 -0.023679 0.0161269 0.06396255 0.074632294 0.020365726 0.01638875 0.025176285
0.06190944 0.034657475 0.06869311 -0.033238303 0.008252584 0.011740788 -0.05415369 -0.04486222
-0.013201486 -0.039375253 -0.05225047 -0.012520997 -0.049675282 -0.06365089 -0.07662015 -0.0373753
-0.045692183 -0.043047875 -0.1004947 -0.043495238 -0.0482931 0.10813251 0.060091782 0.10742036
0.13217574 0.09722355 0.09757551 0.124331936 0.12148923 0.0942053 0.027970158 0.07902554
0.039650135 0.01914468 0.065759234 0.085605875 0.04402136 0.0064368793 0.025918802 -0.05672927
-0.057873126 -0.09663379 -0.036502257 -0.05746841 -0.049434446 -0.08241899 -0.0800036 -0.09447489
0.13218068 0.08170372 0.11858729 0.12426449 0.10006076 0.115966775 0.1028541 0.12655452
0.11027541 0.0414715 0.054350026 0.032213405 0.03241002 0.08934676 0.07294775 0.09908174
0.022534732 0.10584078 -0.06796805 -0.11881357 -0.119963035 -0.12048885 -0.10237548 -0.11725675
-0.13979317 -0.09002761 -0.15403935 0.0069942 -0.021951078 -0.06299927 0.004452526 -3.441746e-05
-0.055407953 -0.008054666 -0.009361914 0.0022754725 0.043052353 0.09704722 0.061668456 0.10724792
0.0725034 0.045608334 0.13044284 0.054132525 0.08938245 0.007468522 -0.026168074 0.0014397904
-0.026643502 -0.0073152203 -0.021909697 -0.023998087 0.0056931577 0.026954198 0.077022836 0.084302574
0.055239048 0.00744977 0.0393071 0.0102566825 0.017535996 0.008003022 0.03296615 -0.027267769
0.026882317 0.00099761 0.004364166 0.019607473 0.029940465 0.02513981 -0.026224563 -0.0056301286
0.055487502 0.03415234 0.081351176 0.03521295 0.054520257 0.04480797 0.057715587 0.068227716
0.037073378 0.080546424 0.07072272 0.023620477 0.013546394 0.057076585 0.072579674 0.020472234
0.027811984 0.014655243 -0.042360045 -0.03001473 0.020642737 0.017897528 -0.02214757 -0.004798675
0.008752538 0.02477998 -0.022891974 -0.06910934 -0.0764163 -0.06979471 -0.102563046 -0.09568404
-0.10965555 -0.053815093 -0.10482532 -0.066923514 0.07640404 0.050553445 0.012288636 0.073529
00000000: c22f 213d a347 1cbc 66e9 c4bc 80bf cebc
00000010: e36e 253d 16cd 893c 6b85 e13c 24b5 ff3a
00000020: 1bc7 5e3d c5c2 d83d bc09 f43d 2474 da3d
00000030: 11d8 ee3d cd73 b53d 4a64 b23d afe9 aa3d
00000040: 5514 ba3d 1ef8 b03d fc1d 603d 376f bd3d
00000050: dc9a 963d 81a7 ce3d 7319 863d f98b c03d
00000060: 7495 b73d 2744 8f3d ee33 0c3d 6da5 103d
00000070: 5706 6d3d dd8b bdbc 9a25 4f3a b0cf 013c
00000080: cba5 93bc d241 e33b 3098 813c 9bc9 2d3c
00000090: 36e8 773c 972a 04bd 5c0b 4a3c 53bf 58bd
000000a0: 5cef 813b 7041 84bb ea2a 49bd a6f3 47bc
000000b0: 423f bebc 7663 e23d 7471 f03d ca49 883d
000000c0: f5c0 a83d 519a 363d 23be f03d fe0b 873d
000000d0: 4a3c 893d cc62 5d3d 099d 23bd a92e 5dbd
000000e0: e52b 533a ef9d a5bd dda6 b7bd adf0 6abd
000000f0: 9ba4 04bd 4429 debc 9398 5bbd 61d2 833d
00000100: 720c 243d bb6f d63d a242 153d 5772 663d
00000110: 0a0c 8b3c 098c 223d 3e64 703d 0767 e53c
00000120: a7b1 a7bd 99a8 4ebd 5061 8ebd 3edd 86bc
00000130: deeb 9bbd d482 fabc 58f6 76bd 530f 6cbd
00000140: 8b76 61bd 77b3 6f3d 9137 d2bc 5f4d 4d3d
00000150: f3d3 013d 92df e63c 4c6f 833c 932a 9c3c
00000160: aee1 5e3c 76fa c1bc 901c 843c ccfe 823d
00000170: d1d8 983d 06d6 a63c b341 863c 7f3e ce3c
00000180: c194 7d3d fff4 0d3d f9ae 8c3d e324 08bd
00000190: d935 073c 6f5c 403c 42d0 5dbd 72c1 37bd
000001a0: 0c4b 58bc f247 21bd 9704 56bd de24 4dbc
000001b0: 4f78 4bbd 665b 82bd 06eb 9cbd d816 19bd
000001c0: ba27 3bbd f852 30bd 2ad0 cdbd 1028 32bd
000001d0: fcce 45bd 9474 dd3d cd22 763d 35ff db3d
000001e0: 1459 073e 241d c73d abd5 c73d bea1 fe3d
000001f0: 58cf f83d b5ee c03d ac21 e53c 24d8 a13d
00000200: 2e68 223d 4ed5 9c3c c7ac 863d 2252 af3d
00000210: be4f 343d 75ec d23b ab53 d43c f35c 68bd
00000220: 5f0c 6dbd f0e7 c5bd 6483 15bd ff63 6bbd
00000230: c67b 4abd 4acb a8bd edd8 a3bd 0d7c c1bd
00000240: 5f5a 073e 4854 a73d e5dd f23d 627e fe3d
00000250: a8ec cc3d fd7f ed3d 2ca5 d23d 8297 013e
00000260: 13d8 e13d 05de 293d 229e 5e3d 34f2 033d
00000270: 5ec0 043d 6ffb b63d a165 953d 5eeb ca3d
00000280: c29a b83c 0dc3 d83d d532 8bbd 8754 f3bd
00000290: 2eaf f5bd dcc2 f6bd 3caa d1bd 4f24 f0bd
000002a0: f125 0fbe 6560 b8bd 7ebc 1dbe 9a2f e53b
000002b0: bfd2 b3bc c305 81bd 7fe6 913b 775b 10b8
000002c0: 73f3 62bd b8f7 03bc b762 19bc 1820 153b
000002d0: aa57 303d b1c0 c63d 1098 7c3d cca4 db3d
000002e0: aa7c 943d cecf 3a3d cf92 053e 11ba 5d3d
000002f0: 250e b73d 81ba f43b 6e5e d6bc 59b7 bc3a
00000300: 7943 dabc 84b4 efbb f77b b3bc a397 c4bc
00000310: ab8d ba3b 0dcf dc3c 26be 9d3d d4a6 ac3d
00000320: 5742 623d 331d f43b 7b00 213d a50b 283c
00000330: a6a7 8f3c 1b1f 033c 8407 073d a860 dfbc
00000340: 4e38 dc3c 3dc2 823a 4701 8f3b da9f a03c
00000350: b545 f53c 01f2 cd3c e5d4 d6bc f17c b8bb
00000360: dd46 633d 53e3 0b3d 729b a63d 743b 103d
00000370: a250 5f3d 9088 373d 2e67 6c3d f9ba 8b3d
00000380: 41da 173d 86f5 a43d 13d7 903d bb7f c13c
00000390: b2f1 5d3c 23c9 693d a7a4 943d 63b5 a73c
000003a0: f5d5 e33c 8b1c 703c ba81 2dbd 73e1 f5bc
000003b0: f51a a93c d69d 923c d26e b5bc 343e 9dbb
000003c0: ce66 0f3c 62ff ca3c f387 bbbc 3389 8dbd
000003d0: 2680 9cbd 87f0 8ebd 930c d2bd fef5 c3bd
000003e0: 1793 e0bd 376d 5cbd a8ae d6bd 320f 89bd
000003f0: b979 9c3d 2111 4f3d 4656 493c 5f96 963d

weight f4 [64]
0.9770887 1.1985335 0.93533504 1.092825 1.0037556 0.82897407 0.97008896 1.0362045
1.0681058 1.0192087 1.1365752 0.8356464 1.0485241 0.97507775 1.0552608 1.0019747
0.9750169 1.0048772 1.075456 1.0932072 1.0424204 0.88991696 1.0947623 1.0375934
1.2775102 0.88532114 0.95925653 0.982166 0.99206126 1.0265844 0.8364325 1.1527159
0.9610755 0.9079581 0.9365595 1.0095748 1.1147305 0.8629734 1.1096851 0.92549413
0.88440716 1.0314436 1.0114958 0.9031174 0.9080445 1.2629073 0.94464874 0.95621836
0.9778182 0.93789166 0.9490309 1.1541141 1.0569354 0.9706915 0.941304 1.1361716
1.0558658 0.94482946 1.2254366 0.94084567 0.9935084 0.9643479 0.8998144 0.9456462
00000000: 7c22 7a3f 8c69 993f 1e72 6f3f b1e1 8b3f
00000010: 107b 803f a537 543f c057 783f 59a2 843f
00000020: b1b7 883f 6e75 823f 4c7b 913f ecec 553f
00000030: 0a36 863f b29e 793f c912 873f b540 803f
00000040: b59a 793f d19f 803f 8ba8 893f 37ee 8b3f
00000050: 086e 853f 99d1 633f 2c21 8c3f dccf 843f
00000060: 7485 a33f 68a4 623f d691 753f 3b6f 7b3f
00000070: baf7 7d3f 1e67 833f 7120 563f 328c 933f
00000080: 0b09 763f f16f 683f 5dc2 6f3f bf39 813f
00000090: 7daf 8e3f d3eb 5c3f 290a 8e3f 2fed 6c3f
000000a0: 8268 623f 5806 843f b278 813f b432 673f
000000b0: 9b75 683f f2a6 a13f 80d4 713f baca 743f
000000c0: 4b52 7a3f ab19 703f b0f3 723f 03ba 933f
000000d0: a949 873f 3d7f 783f 4df9 703f 126e 913f
000000e0: 9c26 873f 58e0 713f 1bdb 9c3f 43db 703f
000000f0: 9156 7e3f 81df 763f 3d5a 663f df15 723f

bias f4 [64]
-0.10320818 0.017564852 -0.07130171 -0.17685944 -0.1409939 -0.14306885 -0.037610445 -0.13760112
-0.09172256 0.1065903 -0.0004413362 -0.19726802 -0.027729623 0.009717987 0.1437548 -0.0048113437
-0.15210463 -0.018751632 0.022995152 0.08405746 -0.06105776 -0.047435552 0.04818183 0.09915493
-0.0065944223 -0.13186797 -0.087590106 -0.033243973 -0.09997537 0.039687872 0.006568987 -0.0024036553
-0.18429159 -0.030681215 -0.057558686 0.057973616 0.18507491 -0.14229438 0.06002665 -0.01491998
-0.10494254 0.07129872 -0.0127897 -0.1446542 -0.099643916 0.076670736 -0.12553144 0.0029256062
-0.0069171856 -0.091139875 -0.014568595 0.23685929 -0.05226612 0.027281798 -0.054442387 -0.032109704
0.09874523 -0.11941363 -0.06168905 -0.07784036 -0.02188873 -0.00511921 0.15458447 -0.09894575
00000000: cf5e d3bd 2ae4 8f3c a206 92bd a41a 35be
00000010: b460 10be a480 12be 690d 1abd 4fe7 0cbe
00000020: 0ad9 bbbd 044c da3d 2463 e7b9 a100 4abe
00000030: 3c29 e3bc 3138 1f3c 7534 133e 7aa8 9dbb
00000040: 51c1 1bbe 069d 99bc 5460 bc3c 5126 ac3d
00000050: b417 7abd c84b 42bd 505a 453d bd11 cb3d
00000060: 0616 d8bb 6608 07be 7162 b3bd d52a 08bd
00000070: e3bf ccbd c08f 223d a840 d73b a586 1dbb
00000080: efb6 3cbe 2c57 fbbc a8c2 6bbd be75 6d3d
00000090: 4784 3d3e 9eb5 11be 81de 753d ef72 74bc
000000a0: 1dec d6bd 1005 923d e48b 51bc 3b20 14be
000000b0: 1c12 ccbd 8c05 9d3d 508b 00be 87bb 3f3b
000000c0: 8fa9 e2bb 8ba7 babd 1eb1 6ebc 3e8b 723e
000000d0: 0015 56bd 147e df3c fbfe 5ebd 7785 03bd
000000e0: f03a ca3d 228f f4bd a8ad 7cbd c46a 9fbd
000000f0: fe4f b3bc 0cbf a7bb 644b 1e3e 12a4 cabd

running_mean f4 [64]
1.6335905 4.635814 -2.6950848 0.7864044 -1.8277526 0.76629686 1.9408575 2.7582903
-0.8079531 1.3496188 4.5889373 -4.488878 4.225415 2.7938964 1.2164643 -2.5726914
5.2607565 2.915532 1.68152 3.8759203 0.15120554 6.6087356 4.5841 2.6628597
1.0641223 -1.3722649 1.254168 0.88324434 1.8093033 -1.1844568 1.070862 0.92602086
-0.58092016 -4.109388 -1.3742241 -0.015415611 1.3128451 0.90390223 5.1734343 -3.6257737
-4.0411897 -1.6181966 1.9187951 -6.243287 0.44422936 2.3769598 -0.8957432 -0.692539
-0.9703544 0.47180772 -0.9275935 -1.0975537 2.1151707 -2.2283492 1.4689174 1.795245
2.021432 0.5009397 3.5916212 -0.8183578 2.094425 -1.1599715 -2.7116165 1.1818938
00000000: 7e19 d13f 9758 9440 457c 2cc0 cc51 493f
00000010: ccf3 e9bf 082c 443f 056e f83f d487 3040
00000020: 04d6 4ebf 4fc0 ac3f 93d8 9240 e3a4 8fc0
00000030: 9a36 8740 33cf 3240 1ab5 9b3f faa6 24c0
00000040: 1e58 a840 1498 3a40 0c3c d73f 140f 7840
00000050: a0d5 1a3e c37a d340 f2b0 9240 4b6c 2a40
00000060: 2935 883f 60a6 afbf 9488 a03f 4d1c 623f
00000070: 4097 e73f 489c 97bf 0212 893f b40f 6d3f
00000080: 2fb7 14bf 1b80 83c0 93e6 afbf c291 7cbc
00000090: 4f0b a83f 2366 673f c68c a540 ad0c 68c0
000000a0: 6d51 81c0 1121 cfbf 149b f53f 02c9 c7c0
000000b0: 0872 e33e 1c20 1840 6d4f 65bf 3c4a 31bf
000000c0: 2569 78bf c890 f13e c576 6dbf a47c 8cbf
000000d0: f55e 0740 469d 0ec0 7c05 bc3f 97ca e53f
000000e0: 245f 0140 963d 003f 1fdd 6540 e67f 51bf
000000f0: 0f0b 0640 f279 94bf 208b 2dc0 4c48 973f

running_var f4 [64]
9.484103 30.023586 15.99355 12.659807 7.0044217 8.456494 19.105114 8.653749
14.510065 5.002524 17.674814 13.41113 14.951976 30.366682 12.972935 17.379953
17.139973 21.477509 8.423304 10.766618 13.441576 17.73827 27.131277 15.339366
16.428476 13.421982 18.387178 23.109226 10.693651 15.560527 5.9944367 11.549069
6.702157 18.234587 6.5995383 19.80746 17.067263 32.9063 41.07564 10.185262
11.494479 16.802582 21.813192 12.963473 6.361476 26.127758 15.424902 10.297578
13.528631 15.059826 9.590533 11.921666 12.441493 6.0489187 12.255002 14.331971
9.709326 7.571536 24.747215 13.821421 14.15294 7.8390694 16.873814 29.07502
00000000: e3be 1741 4e30 f041 95e5 7f41 928e 4a41
00000010: 3924 e040 cd4d 0741 46d7 9841 c275 0a41
00000020: 3a29 6841 ad14 a040 0566 8d41 fd93 5641
00000030: 4b3b 6f41 f7ee f241 2491 4f41 250a 8b41
00000040: aa1e 8941 f0d1 ab41 dac5 0641 1144 2c41
00000050: b210 5741 fae7 8d41 db0c d941 0b6e 7541
00000060: 856d 8341 70c0 5641 f118 9341 b2df b841
00000070: 3219 2b41 ebf7 7841 6dd2 bf40 fdc8 3841
00000080: 1278 d640 6fe0 9141 6b2f d340 ae75 9e41
00000090: c189 8841 0da0 0342 754d 2442 d5f6 2241
000000a0: 63e9 3741 b06b 8641 6b81 ae41 636a 4f41
000000b0: 3691 cb40 a605 d141 66cc 7641 e1c2 2441
000000c0: 4675 5841 0cf5 7041 d372 1941 25bf 3e41
000000d0: 5b10 4741 be90 c140 7d14 4441 c14f 6541
000000e0: 6659 1b41 064a f240 4cfa c541 8a24 5d41
000000f0: 7172 6241 a8d9 fa40 92fd 8641 a499 e841

weight f4 [64, 64, 3, 3]
0.041506335 -0.020480003 -0.008733368 0.015741723 0.009935867 0.02567031 0.023776688 -0.0030288524
-0.024658453 -0.045399133 -0.050310493 -0.013894126 -0.012122265 -0.07772851 -0.0002369139 0.0035028188
-0.054526728 -0.04896375 -0.100337595 -0.06165382 -0.08946483 -0.11069919 -0.055235118 -0.07276928
-0.08167841 -0.086223155 -0.054983787 0.08364372 0.12251554 0.10723309 0.11940541 0.08280687
0.119821295 0.087996855 0.06430322 0.09626734 -0.1171114 -0.13926655 -0.115146756 -0.14028783
-0.1138434 -0.1008221 -0.1127046 -0.07357931 -0.123109676 0.017546829 0.04697818 0.011405434
0.067682356 0.05577332 0.06912811 0.02977238 0.07407674 -0.005364238 -0.005333872 -0.08160236
-0.019321905 0.0008856371 -0.036385417 -0.07306218 -0.029732691 -0.020148441 -0.049735304 -0.014359161
-0.054667708 -0.039900325 -0.066276595 -0.07663203 -0.02484085 -0.0796991 -0.03575207 -0.07498014
-0.10245581 -0.09164255 -0.08886678 -0.111557536 -0.07102056 -0.14297278 -0.13190831 -0.10755551
-0.15496017 0.056720994 0.016060984 0.04384632 0.016038919 0.050184116 -0.0054462403 0.041285638
0.08172379 0.037747268 0.013247716 0.035670333 0.060306776 0.008055444 0.012893519 0.044476286
0.062351666 0.0024292562 0.05533382 0.011427514 -0.015704064 -0.028673109 0.0040862686 -0.05850232
-0.01589545 -0.019090947 -0.049310073 -0.0048031313 -0.117399074 -0.08774672 -0.06967313 -0.09447637
-0.09125754 -0.11976033 -0.09698536 -0.08166791 -0.13320504 0.005581179 -0.012024808 0.052773833
0.010366113 0.016106265 -0.022299057 -0.019273596 -0.0025537352 0.022312833 0.0021025517 0.026092753
0.03920476 0.039574638 -0.007366064 0.008715792 0.011754223 0.05888452 0.0017639573 -0.015959874
-0.06869434 -0.08293522 -0.08641247 -0.09310595 -0.054580167 -0.057301525 -0.084987916 -0.09946593
-0.07305407 -0.07314463 -0.05895555 -0.11436302 -0.13037586 -0.12134138 -0.11315023 -0.08095392
-0.081615 0.055422746 0.020538533 0.016781792 -0.01317875 -0.008447188 0.017131053 0.0574509
-0.0055185114 0.023171784 -0.072046034 -0.10970998 0.006952043 -0.021807708 0.061783187 0.052314363
0.025046317 -0.0029224274 0.047558397 0.038255036 0.038596295 -0.024104081 0.011458069 0.040517032
0.023684362 0.0009677806 0.041878127 -0.030746667 -0.045502134 -0.05229323 -0.06316818 -0.08849474
-0.03648798 -0.0821027 -0.13675116 -0.11300561 -0.113047786 0.017397463 -0.03291128 -0.015771298
-0.035541784 -0.041687854 0.025687676 -0.03942145 -0.00741938 -0.024835562 0.045377854 -0.0061772275
0.00128444 0.039099503 0.008002474 -0.010572622 -0.005955847 0.04222142 0.019491835 -0.13364248
-0.07496519 -0.084132746 -0.1292366 -0.09336161 -0.082757026 -0.07882057 -0.101737104 -0.12712565
0.040242657 -0.012082128 -0.012492569 -0.026212068 -0.0071903802 0.060254976 0.0072393343 0.011663479
0.038972523 -0.020985886 0.0081913285 -0.04509091 0.021108799 -0.052858982 -0.0064076697 -0.046639394
0.007875114 -0.050765086 0.005388539 -0.051014297 -0.050779223 0.01687359 -0.013260486 -0.046453536
-0.0037436453 -0.04958711 -0.001757537 0.1056149 0.12226065 0.091202 0.10146447 0.12906806
0.11492283 0.091036804 0.1297427 0.09570036 0.002566956 0.019418724 0.024979101 0.022568738
00000000: 8c02 2a3d aec5 a7bc 6616 0fbc c9f4 803c
00000010: 0cca 223c 8b4a d23c 54c7 c23c b67f 46bb
00000020: 8600 cabc 71f4 39bd 6012 4ebd 30a4 63bc
00000030: 779c 46bc 2030 9fbd 176c 78b9 8c8f 653b
00000040: 6b57 5fbd 378e 48bd cc7d cdbd b788 7cbd
00000050: 5639 b7bd 42b6 e2bd 383e 62bd 0f08 95bd
00000060: 0347 a7bd c495 b0bd ae36 61bd 664d ab3d
00000070: 6de9 fa3d 069d db3d d38a f43d a696 a93d
00000080: de64 f53d b237 b43d 68b1 833d d027 c53d
00000090: 1ad8 efbd e49b 0ebe 10d2 ebbd 9da7 0fbe
000000a0: ba26 e9bd d17b cebd abd1 e6bd c0b0 96bd
000000b0: ed20 fcbd 5ebe 8f3c 316c 403d dcdd 3a3c
000000c0: 0c9d 8a3d 9172 643d 0a93 8d3d 35e5 f33c
000000d0: 8cb5 973d 7dc6 afbb c3c7 aebb 231f a7bd
000000e0: f948 9ebc 1a2a 683a e008 15bd a0a1 95bd
000000f0: f991 f3bc 580e a5bc 3fb7 4bbd b042 6bbc
00000100: 3feb 5fbd 866e 23bd 06bc 87bd 41f1 9cbd
00000110: 0a7f cbbc 4839 a3bd c370 12bd 308f 99bd
00000120: 5ad4 d1bd 17af bbbd c9ff b5bd 4778 e4bd
00000130: 3a73 91bd 7567 12be f912 07be 1046 dcbd
00000140: e1ad 1ebe 4654 683d 5392 833c 3398 333d
00000150: 0d64 833c dc8d 4d3d 6076 b2bb 211b 293d
00000160: cd5e a73d e19c 1a3d f30c 593c 0e1b 123d
00000170: 3d04 773d fbfa 033c 573f 533c c42c 363d
00000180: 7664 7f3d 2834 1f3b b7a5 623d 783a 3b3c
00000190: cfa5 80bc dee3 eabc 1be6 853b 21a0 6fbd
000001a0: 2d37 82bc 9e64 9cbc 5cf9 49bd 9663 9dbb
000001b0: ed6e f0bd 8db4 b3bd c9b0 8ebd d47c c1bd
000001c0: 3ce5 babd e744 f5bd 43a0 c6bd 8141 a7bd
000001d0: e766 08be 53e2 b63b b303 45bc 6029 583d
000001e0: a1d6 293c 49f1 833c 83ac b6bc a9e3 9dbc
000001f0: 915c 27bb 67c9 b63c f7ca 093b 78c0 d53c
00000200: 2c95 203d 0419 223d 065f f1bb aecc 0e3c
00000210: c994 403c e530 713d 9634 e73a 48be 82bc
00000220: 9eaf 8cbd f1d9 a9bd 05f9 b0bd 55ae bebd
00000230: 748f 5fbd 01b5 6abd 250e aebd cbb4 cbbd
00000240: 5f9d 95bd dacc 95bd 607b 71bd 2937 eabd
00000250: 4081 05be d481 f8bd 4fbb e7bd 2bcb a5bd
00000260: c425 a7bd f602 633d 6d40 a83c f879 893c
00000270: afeb 57bc 1366 0abc 6c56 8c3c a351 6b3d
00000280: a1d4 b4bb c1d2 bd3c df8c 93bd a0af e0bd
00000290: f7cd e33b 14a6 b2bc 5e10 7d3d 9647 563d
000002a0: ef2d cd3c 3286 3fbb 98cc 423d 50b1 1c3d
000002b0: 2617 1e3d ec75 c5bc a0ba 3b3c 30f5 253d
000002c0: b505 c23c a8b2 7d3a 6688 2b3d 6fe0 fbbc
000002d0: 7260 3abd 6d31 56bd 525e 81bd bb3c b5bd
000002e0: 6c74 15bd 7625 a8bd 7f08 0cbe 7c6f e7bd
000002f0: 9985 e7bd 2085 8e3c facd 06bd cf32 81bc
00000300: 4394 11bd e2c0 2abd f66e d23c 6378 21bd
00000310: 451e f3bb f373 cbbc 21de 393d 576a cabb
00000320: a85a a83a cd26 203d cf1c 033c ca38 2dbc
00000330: 4429 c3bb 5ef0 2c3d 57ad 9f3c 93d9 08be
00000340: 5987 99bd ca4d acbd 9956 04be 5f34 bfbd
00000350: 847c a9bd ae6c a1bd 8b5b d0bd 3a2d 02be
00000360: 7cd5 243d 1ef4 45bc a2ad 4cbc b1ba d6bc
00000370: 489d ebbb eccd 763d f037 ed3b 2d18 3f3c
00000380: a7a1 1f3d 98ea abbc ec34 063c 3fb1 38bd
00000390: 5cec ac3c a982 58bd 6ef7 d1bb f308 3fbd
000003a0: 9f06 013c 0def 4fbd 5792 b03b 5ef4 50bd
000003b0: e0fd 4fbd 7c3a 8a3c 8242 59bc 1046 3ebd
000003c0: f257 75bb da1b 4bbd 285d e6ba a04c d83d
000003d0: cb63 fa3d 1dc8 ba3d 9bcc cf3d 6b2a 043e
000003e0: a95c eb3d 8171 ba3d 45db 043e 8dfe c33d
000003f0: 603a 283b 0414 9f3c f9a0 cc3c 13e2 b83c

weight f4 [64]
0.94618875 0.84687734 0.84153616 0.80259 0.9028975 0.7453557 0.78981465 1.0214112
0.9640473 0.66002923 0.8115773 0.8671032 0.8175729 0.84573686 0.712877 0.8495419
0.9794713 0.7219244 0.89369154 0.9297475 1.0159053 0.9757982 1.0126154 0.9169364
1.0179682 0.7914952 0.81229544 0.7357204 0.9056627 0.81984574 0.90115786 0.8524708
1.0144707 0.94917226 0.9365606 0.9744667 1.0114589 0.8262075 0.9423031 0.94278383
0.72357905 0.8417589 0.79711044 0.97731084 0.99387544 0.96831363 0.8044002 0.78745854
0.88253987 0.81913954 0.96527255 0.84022105 1.1225424 0.9843197 0.8221302 0.94819677
0.8597954 0.9139356 0.79972965 0.7380296 0.8745118 0.8741218 0.7472742 0.9278243
00000000: 6d39 723f f4cc 583f ea6e 573f 8a76 4d3f
00000010: 4a24 673f a2cf 3e3f 4b31 4a3f 9abd 823f
00000020: cecb 763f adf7 283f 88c3 4f3f 7afa 5d3f
00000030: 754c 513f 3682 583f 1b7f 363f 947b 593f
00000040: a2be 7a3f 0ad0 383f f8c8 643f ef03 6e3f
00000050: 2f09 823f e9cd 793f 629d 813f 58bc 6a3f
00000060: c84c 823f 6e9f 4a3f 98f2 4f3f 2c58 3c3f
00000070: 83d9 673f 69e1 513f 48b2 663f 873b 5a3f
00000080: 2dda 813f f4fc 723f 6fc2 6f3f a676 793f
00000090: 7c77 813f 5682 533f c73a 713f 485a 713f
000000a0: 7a3c 393f 837d 573f 6e0f 4c3f 0b31 7a3f
000000b0: 9f6e 7e3f 67e3 773f 2ced 4d3f e296 493f
000000c0: 22ee 613f 21b3 513f 1a1c 773f ba18 573f
000000d0: 78af 8f3f 60fc 7b3f 2077 523f 06bd 723f
000000e0: 8d1b 5c3f aff7 693f 15bb 4c3f 82ef 3c3f
000000f0: 01e0 5f3f 72c6 5f3f 5d4d 3f3f e585 6d3f

bias f4 [64]
-0.2111621 -0.13187674 -0.17411071 -0.17826657 -0.13800281 -0.21150406 -0.19771726 -0.035440043
-0.022918744 -0.2816765 -0.029222192 -0.14661504 -0.18204856 -0.16826403 -0.23618142 -0.23435673
-0.02189758 -0.26634255 -0.14439468 -0.06033193 -0.045244303 -0.11100488 -0.05068859 -0.109740645
-0.05763799 -0.17411889 -0.18427339 -0.2107856 -0.1841517 -0.15477018 -0.117024854 -0.15899302
-0.031906642 -0.057551105 -0.031572275 -0.123669945 -0.17207111 -0.22510357 -0.189495 -0.058454566
-0.22103618 -0.19393176 -0.19459668 -0.076997995 -0.024373354 -0.035908666 -0.20279898 -0.19508658
-0.0242724 -0.1278209 -0.021282308 -0.20862685 -0.044913612 -0.09161367 -0.19422102 -0.0047117826
-0.30835462 -0.19334862 -0.2082976 -0.19662403 -0.18462716 -0.17011772 -0.21175542 -0.060548745
00000000: e13a 58be b20a 07be 144a 32be 838b 36be
00000010: 9c50 0dbe 8594 58be 6576 4abe 9429 11bd
00000020: 17c0 bbbc e737 90be 6163 efbc 4122 16be
00000030: f06a 3abe 684d 2cbe 8bd9 71be 36fb 6fbe
00000040: 8e62 b3bc 0d5e 88be 33dc 13be 9d1e 77bd
00000050: 1752 39bd 8756 e3bd d79e 4fbd b4bf e0bd
00000060: d015 6cbd 394c 32be 2ab2 3cbe 2ed8 57be
00000070: 4392 3cbe 137c 1ebe baaa efbd 11cf 22be
00000080: 8ab0 02bd b5ba 6bbd ee51 01bd ab46 fdbd
00000090: 6933 30be 8d81 66be fa0a 42be 0e6e 6fbd
000000a0: 4f57 62be 0c96 46be 5a44 47be 20b1 9dbd
000000b0: a1aa c7bc f714 13bd 89aa 4fbe c7c4 47be
000000c0: ead6 c6bc 7be3 02be 3c58 aebc 47a2 55be
000000d0: 56f7 37bd f39f bbbd e0e1 46be 4c65 9abb
000000e0: a8e0 9dbe 2efd 45be f74b 55be cf57 49be
000000f0: e70e 3dbe 5733 2ebe 6ad6 58be f601 78bd

running_mean f4 [64]
-0.9456902 -3.9923065 0.459708 1.3382272 -0.7231606 7.172661 -0.5540864 -2.5042036
-2.9006014 3.2245133 0.54680467 -4.553666 1.1392499 -5.43521 3.4426122 4.8141446
-3.4952753 1.8031616 -0.2415365 -0.7588759 -3.301185 -2.1813898 -3.0673804 -2.4610956
-7.1169844 3.6924543 4.8611813 4.36296 0.095213905 -5.0489464 -1.9715979 1.3102298
-8.876519 -2.9209633 -8.628748 3.3345935 0.16146977 -3.2647915 -4.8556685 1.951562
6.006833 -2.247741 -0.3373155 0.43432325 -8.2458935 -6.7033134 1.9270153 4.5043497
3.5754251 4.118427 -5.2888036 1.0039469 -0.19463775 4.4019465 5.6863966 4.319742
4.388305 0.35265133 2.7402713 -1.2437687 2.907088 1.5856187 3.9684713 2.7719054
00000000: c118 72bf f381 7fc0 d95e eb3e 074b ab3f
00000010: 0e21 39bf 7086 e540 9bd8 0dbf df44 20c0
00000020: 74a3 39c0 6d5e 4e40 64fb 0b3f a2b7 91c0
00000030: f1d2 913f 3eed adc0 c253 5c40 790d 9a40
00000040: 97b2 5fc0 00ce e63f 5855 77be b145 42bf
00000050: 9d46 53c0 e49b 0bc0 f64f 44c0 9782 1dc0
00000060: 56be e3c0 2c51 6c40 cc8e 9b40 5e9d 8b40
00000070: 82ff c23d f890 a1c0 525d fcbf 9cb5 a73f
00000080: 3906 0ec1 10f1 3ac0 5a0f 0ac1 fb69 5540
00000090: 5558 253e 58f2 50c0 a361 9bc0 c9cc f93f
000000a0: fa37 c040 fdda 0fc0 9eb4 acbe 9e5f de3e
000000b0: 2eef 03c1 8b81 d6c0 70a8 f63f a223 9040
000000c0: c4d3 6440 27ca 8340 e13d a9c0 5581 803f
000000d0: 1e4f 47be bfdc 8c40 f6f6 b540 543b 8a40
000000e0: ff6c 8c40 b78e b43e 9b60 2f40 d033 9fbf
000000f0: bb0d 3a40 8ef5 ca3f 6ffb 7d40 e666 3140

running_var f4 [64]
21.796608 27.01248 15.41365 14.318758 17.27402 29.160917 10.123677 80.60209
26.996138 19.017948 35.009125 22.414333 25.916836 12.761829 51.31178 35.57172
38.092705 22.863028 26.814644 27.198229 44.46202 23.463423 71.22608 48.59389
85.78528 36.423763 27.52636 40.344585 20.51567 32.2279 27.143143 20.810226
103.75069 43.77038 53.037 66.606026 32.874733 14.969733 58.520706 69.919304
33.30101 10.571441 15.698724 33.284977 45.39299 71.69266 26.749866 45.744934
68.110306 42.627155 72.40722 24.187496 59.86163 65.9348 45.793274 49.44238
17.74499 30.368553 57.801052 18.754005 47.20267 12.841833 14.402775 60.380745
00000000: 745f ae41 8f19 d841 4f9e 7641 a219 6541
00000010: 3131 8a41 8f49 e941 95fa 2141 4534 a142
00000020: 17f8 d741 c224 9841 5809 0c42 8e50 b341
00000030: ae55 cf41 7430 4c41 433f 4d42 7149 0e42
00000040: ee5e 1842 7be7 b641 6484 d641 f995 d941
00000050: 1cd9 3142 17b5 bb41 c173 8e42 2560 4242
00000060: 1092 ab42 efb1 1142 fc35 dc41 db60 2142
00000070: 1820 a441 5fe9 0042 2825 d941 587b a641
00000080: 5a80 cf42 de14 2f42 e325 5442 4936 8542
00000090: ba7f 0342 0784 6f41 3415 6a42 afd6 8b42
000000a0: 3c34 0542 9f24 2941 f92d 7b41 d123 0542
000000b0: 6c92 3542 a462 8f42 baff d541 d0fa 3642
000000c0: 7a38 8842 3582 2a42 7fd0 9042 fe7f c141
000000d0: 4f72 6f42 9ede 8342 502c 3742 ffc4 4542
000000e0: bdf5 8d41 ccf2 f241 4734 6742 3408 9641
000000f0: 89cf 3c42 2678 4d41 c471 6641 e285 7142

weight f4 [64, 64, 3, 3]
-0.03856223 -0.06715404 -0.028385162 -0.05017069 0.029383458 -0.07706031 -0.03709692 0.026441287
-0.0723474 0.025008434 0.0870735 0.045338377 0.07143696 0.054897167 0.10178493 0.08267967
0.09662529 0.040927123 -0.078982085 -0.029080916 -0.07122675 -0.018415954 -0.02024942 -0.049064953
-0.034421664 -0.079972126 -0.08776868 0.06992765 0.072996885 0.059460074 0.123496205 0.058454737
0.051608738 0.04454124 0.11432863 0.09804466 0.025896274 -0.00902545 0.018132348 0.0377977
0.007254682 -0.06875824 -0.059954073 -0.03351333 -0.03222227 -0.110433884 -0.09827483 -0.04307769
-0.10277171 -0.043060005 -0.08313925 -0.04381018 -0.056990147 -0.045817 0.10894963 0.09868432
0.12809238 0.13952433 0.124453515 0.077095464 0.14372055 0.07409565 0.099501856 0.075732425
0.10095313 0.1362014 0.05569569 0.112505354 0.06545578 0.108533524 0.098699994 0.13234518
-0.0022081393 0.028865252 -0.015058861 0.029237308 0.05489399 0.015191723 -0.0061886217 0.03876706
0.053500716 0.09934634 0.114262424 0.035549007 0.06987074 0.062761724 0.006809903 0.09042501
0.05890474 -0.0025083916 0.056276735 0.023945643 -0.03216852 0.0016698083 0.037190992 -0.0055646626
0.016287431 0.03198951 -0.012313116 0.037358314 0.06550917 0.061703537 0.07909704 0.10364293
0.023981808 0.047372423 0.024147563 0.037347715 0.046200033 0.037403144 0.008569058 0.052000575
0.02639934 0.0065062097 0.053521503 -0.0039071143 -0.0021394445 -0.0018790683 -0.015964827 -0.03482723
-0.0126251755 -0.06565051 0.0032525582 -0.031254616 -0.03112022 -0.070851065 0.07543242 0.09200418
0.061585292 0.12422203 0.1194726 0.07264493 0.1184766 0.06576529 0.07417203 0.0047315564
0.022668857 -0.033657435 -0.04103982 -0.026010403 -0.010422084 -0.012148748 -0.010372346 -0.04788421
0.026883025 0.070992954 -0.018490393 0.007771685 0.08061798 0.0525345 -0.010300629 0.029131949
0.041837297 0.058331452 0.04262323 0.030593524 0.012478619 0.0051737623 -0.07648667 -0.050737698
-0.017739655 -0.05343196 0.09863022 0.037985027 0.09431749 0.051485837 0.09953755 0.110763855
0.044183787 0.041743126 0.07540638 -0.035130113 -0.0028493588 -0.028791968 0.041915935 0.0153201725
0.0061627887 -0.02215771 0.012826871 0.028374638 0.05101939 0.08029971 0.05955583 0.009856008
0.04321822 0.053498164 0.075630054 0.041368555 0.03806989 0.083048105 0.15970175 0.10864394
0.12048822 0.088441424 0.08416247 0.14077106 0.15085724 0.12727405 0.05245499 0.04528137
0.09702227 0.07411774 0.095610164 0.1011698 0.050628733 0.11770477 0.049416147 0.1144488
0.13801058 0.12162938 0.12424369 0.10572855 0.13120325 0.0672495 0.13420205 0.092977636
-0.035857495 -0.029993292 -0.025058152 -0.037173804 -0.040881205 0.008645344 -0.03496383 -0.05165431
-0.029967736 0.06215745 0.04071576 0.03278778 0.03948366 0.054342832 0.038124114 0.010685333
0.070222035 -0.005359842 0.0283526 0.018572738 0.019555748 -0.011813885 -0.008364451 -0.002925781
-0.032602232 0.021124495 -0.03564866 0.051305663 0.0034198842 0.05658427 0.003960121 0.047931448
0.030570393 0.007518126 0.0032975376 0.051492937 0.08329469 0.1208806 0.15556145 0.09700465
00000000: 6ef3 1dbd 0f88 89bd 0088 e8bc c87f 4dbd
00000010: 94b5 f03c ccd1 9dbd f1f2 17bd 669b d83c
00000020: e02a 94bd 7dde cc3c 9753 b23d bcb4 393d
00000030: 8a4d 923d dadb 603d 9e74 d03d f553 a93d
00000040: 7be3 c53d 33a3 273d 5cc1 a1bd 1a3b eebc
00000050: 55df 91bd 0edd 96bc 1de2 a5bc 55f8 48bd
00000060: bbfd 0cbd 6dc8 a3bd 11c0 b3bd 3a36 8f3d
00000070: 647f 953d 688c 733d 94eb fc3d 3c6e 6f3d
00000080: af63 533d e070 363d 2125 ea3d a4cb c83d
00000090: 6c24 d43c 7bdf 13bc 4a8a 943c c3d1 1a3d
000000a0: afb8 ed3b 1fd1 8cbd 6792 75bd 4645 09bd
000000b0: 80fb 03bd 292b e2bd 5044 c9bd 3b72 30bd
000000c0: f979 d2bd b05f 30bd e944 aabd 4e72 33bd
000000d0: 806e 69bd 9baa 3bbd fc20 df3d 011b ca3d
000000e0: a62a 033e 77df 0e3e 7ce1 fe3d 3ae4 9d3d
000000f0: 7b2b 133e 76bf 973d a1c7 cb3d 9a19 9b3d
00000100: 84c0 ce3d 6178 0b3e 2a21 643d 3569 e63d
00000110: ae0d 863d d346 de3d 3923 ca3d 7f85 073e
00000120: 6eb6 10bb d276 ec3c 71b9 76bc 1483 ef3c
00000130: 85d8 603d b4e6 783c ecc9 cabb 35ca 1e3d
00000140: 9123 5b3d 1876 cb3d 6b02 ea3d d69b 113d
00000150: 6418 8f3d 3889 803d 9b25 df3b bf30 b93d
00000160: 1946 713d d463 24bb 6f82 663d a729 c43c
00000170: 23c3 03bd 78dd da3a 9555 183d c657 b6bb
00000180: 386d 853c 6f07 033d f4bc 49bc 0805 193d
00000190: ac29 863d d9bc 7c3d a1fd a13d bf42 d43d
000001a0: 7f75 c43c 9609 423d 1cd1 c53c ebf9 183d
000001b0: 3f3c 3d3d 0a34 193d 3c65 0c3c 8efe 543d
000001c0: 6e43 d83c 0b32 d53b 5d39 5b3d 4007 80bb
000001d0: ec35 0cbb 124b f6ba abc8 82bc ffa6 0ebd
000001e0: d3d9 4ebc c673 86bd df28 553b d704 00bd
000001f0: d5ef febc 5d1a 91bd 507c 9a3d b06c bc3d
00000200: dc40 7c3d 1f68 fe3d 0dae f43d ddc6 943d
00000210: dca3 f23d f4af 863d 81e7 973d 2c0b 9b3b
00000220: 0ab4 b93c 61dc 09bd 5f19 28bd c513 d5bc
00000230: 63c1 2abc 8b0b 47bc c6f0 29bc 3c22 44bd
00000240: ca39 dc3c c164 913d 2a79 97bc 9ea9 fe3b
00000250: 0a1b a53d 6a2e 573d f8c3 28bc 20a6 ee3c
00000260: 965d 2b3d f6ec 6e3d b295 2e3d 459f fa3c
00000270: 1f73 4c3c aa88 a93b 0ba5 9cbd 55d2 4fbd
00000280: c152 91bc 79db 5abd a4fe c93d 3096 1b3d
00000290: 8729 c13d d0e2 523d 58da cb3d 29d8 e23d
000002a0: 0ffa 343d d7fa 2a3d a96e 9a3d 98e4 0fbd
000002b0: 4fbc 3abb 22dd ebbc 0bb0 2b3d 7601 7b3c
000002c0: 38f1 c93b 1684 b5bc cc27 523c ee71 e83c
000002d0: b5f9 503d 2d74 a43d d0f0 733d 187b 213c
000002e0: 9705 313d e420 5b3d eee3 9a3d 1372 293d
000002f0: 2cef 1b3d 2015 aa3d db88 233e b780 de3d
00000300: 87c2 f63d c720 b53d 605d ac3d 4a26 103e
00000310: 527a 1a3e 2154 023e 0bdb 563d f578 393d
00000320: 9db3 c63d 0bcb 973d 43cf c33d 1d32 cf3d
00000330: 1360 4f3d 330f f13d 9668 4a3d 2264 ea3d
00000340: a552 0d3e d318 f93d 7a73 fe3d 3688 d83d
00000350: 255a 063e 1bba 893d 436c 093e 0f6b be3d
00000360: 4fdf 12bd 7eb4 f5bc c146 cdbc 8f43 18bd
00000370: 0d73 27bd 33a5 0d3c 3c36 0fbd 7893 53bd
00000380: e67e f5bc cf98 7e3d 92c5 263d 7b4c 063d
00000390: 9eb9 213d 9796 5e3d 0828 1c3d 8911 2f3c
000003a0: 92d0 8f3d 9da1 afbb b643 e83c db25 983c
000003b0: 6033 a03c 068f 41bc 0d0b 09bc 76be 3fbb
000003c0: eb89 05bd 470d ad3c 5404 12bd e325 523d
000003d0: 2320 603b e8c4 673d e7c3 813b c453 443d
000003e0: c36e fa3c 9d5a f63b 801b 583b 42ea 523d
000003f0: 6896 aa3d 3f90 f73d 804b 1f3e 60aa c63d

weight f4 [64]
1.1026818 0.8619347 0.98245966 0.97448176 1.0384774 1.1151335 0.9562678 1.1862491
0.9201903 1.2098023 1.0178002 0.9150349 0.9183308 0.989653 0.92039186 0.9400151
0.9487521 1.1244957 0.99988467 1.0358981 0.96783906 1.0122254 0.94788766 1.0480473
1.3473607 0.85660267 1.0680227 0.8455053 1.0200665 1.0096897 0.9717095 0.95352095
0.8838029 1.0512029 1.036409 0.9838824 1.1095623 0.8989388 0.61697555 0.95073
0.8820149 0.96199054 1.0988656 0.9586607 0.9788748 1.0534346 0.9417213 1.0740726
0.97953796 1.1138598 0.9546472 0.83924705 0.7343349 1.0581713 1.0887327 0.96303713
1.036343 0.95675755 1.0934775 1.0808039 1.0319197 1.0893633 0.96588945 0.90084845
00000000: ad24 8d3f c1a7 5c3f 7a82 7b3f a377 793f
00000010: d4ec 843f b2bc 8e3f f7cd 743f 03d7 973f
00000020: 9791 6b3f cdda 9a3f 4747 823f ba3f 6a3f
00000030: ba17 6b3f e659 7d3f cd9e 6b3f d4a4 703f
00000040: 6be1 723f 7aef 8f3f 71f8 7f3f 4f98 843f
00000050: 4dc4 773f 9a90 813f c4a8 723f 6a26 863f
00000060: 5176 ac3f 504a 5b3f f8b4 883f 0973 583f
00000070: 8a91 823f 833d 813f f4c1 783f f319 743f
00000080: e840 623f d18d 863f 0da9 843f b8df 7b3f
00000090: 2306 8e3f da20 663f 1cf2 1d3f 0b63 733f
000000a0: bacb 613f 0345 763f a1a7 8c3f ca6a 753f
000000b0: 8a97 7a3f f2d6 863f a614 713f 367b 893f
000000c0: 00c3 7a3f f592 8e3f c263 743f e5d8 563f
000000d0: 5ffd 3b3f 2872 873f 985b 8b3f 9a89 763f
000000e0: e3a6 843f 10ee 743f 12f7 8b3f c857 8a3f
000000f0: f215 843f 4270 8b3f 8844 773f 019e 663f

bias f4 [64]
0.061724793 -0.19531909 -0.05231332 -0.06024345 0.053196095 0.07772367 0.030627806 0.17411731
-0.057628103 0.17220339 0.08724144 -0.06883688 -0.012004057 0.023972346 -0.003795302 -0.05647604
-0.08871132 0.115932494 -0.019873371 0.053849354 -0.060174324 -0.003305964 -0.023950215 -0.012496545
0.2352721 -0.14363986 0.20578381 -0.08228782 0.024949498 0.078988 0.01882992 0.0015733878
-0.1674767 0.035236116 0.28557935 -0.012169915 0.12041878 -0.1271122 -0.23018786 0.027029008
-0.11569095 0.014828392 -0.004836595 0.018840568 0.03141621 0.04807337 -0.08131458 0.106046796
-0.018659705 0.08896213 -0.03583692 -0.25221863 -0.24052054 0.017112777 0.03679706 -0.18227094
0.111171484 -0.00214105 0.07066417 0.14076675 -0.06959435 0.07913706 -0.02238438 -0.20759815
00000000: 23d3 7c3d ba01 48be 7e46 56bd d6c1 76bd
00000010: 26e4 593d 962d 9f3d 2ae7 fa3c cf4b 323e
00000020: 720b 6cbd 1656 303e a4ab b23d 5afa 8cbd
00000030: aaac 44bc a761 c43c 9aba 78bb 6c53 67bd
00000040: 48ae b5bd 046e ed3d 7bcd a2bc 2491 5c3d
00000050: 5a79 76bd dfa8 58bb 3e33 c4bc 4fbe 4cbc
00000060: 2beb 703e 5416 13be feb8 523e 8486 a8bd
00000070: e462 cc3c 76c4 a13d 3441 9a3c 223a ce3a
00000080: 037f 2bbe bf53 103d 7537 923e 5364 47bc
00000090: 1f9e f63d b329 02be 5eb6 6bbe f06b dd3c
000000a0: 60ef ecbd c9f2 723c 4d7c 9ebb 8957 9a3c
000000b0: 49ae 003d 95e8 443d 4288 a6bd 102f d93d
000000c0: 3ddc 98bc c731 b63d bcc9 12bd cd22 81be
000000d0: 044b 76be 1830 8c3c 84b8 163d 3ca5 3abe
000000e0: e0ad e33d dc50 0cbb 60b8 903d 2925 103e
000000f0: 7c87 8ebd 9c12 a23d 735f b7bc 9c94 54be

running_mean f4 [64]
2.4517622 -0.24148706 4.1732726 -8.01753 6.923705 1.4243711 0.6564904 5.694702
1.4455816 4.749049 -2.6583633 -3.6542737 7.338313 2.2448382 3.575975 5.0234375
-0.39217097 3.3750095 1.2187144 -3.8186452 2.0860765 1.2843723 5.107986 2.855249
-3.9361377 3.5153272 -8.098838 0.2229154 1.8611846 -2.5583735 2.8271995 -3.0019493
3.4360127 2.5592895 -2.5605092 5.738749 1.54335 -0.7639757 -4.4908137 -0.14843531
-2.6972926 1.115364 4.926645 2.5656862 -6.0270486 1.5030229 -5.2949343 0.10182503
0.2602298 4.7680655 -4.86767 7.3522797 -1.8926231 4.535715 4.095965 2.587535
3.6708252 -3.1860487 -7.619627 2.6387703 3.588958 5.5305805 6.3187995 0.84536487
00000000: ace9 1c40 6248 77be 738b 8540 ce47 00c1
00000010: fe8e dd40 cb51 b63f c10f 283f 003b b640
00000020: d108 b93f 36f8 9740 a022 2ac0 9fdf 69c0
00000030: 76d3 ea40 6eab 0f40 c6dc 6440 00c0 a040
00000040: a2ca c8be 2800 5840 d5fe 9b3f af64 74c0
00000050: 4782 0540 5066 a43f 9f74 a340 66bc 3640
00000060: aee9 7bc0 1ffb 6040 d794 01c1 ef43 643e
00000070: 4c3b ee3f 64bc 23c0 d6f0 3440 f01f 40c0
00000080: a2e7 5b40 66cb 2340 62df 23c0 d5a3 b740
00000090: 7e8c c53f e993 43bf bfb4 8fc0 6dff 17be
000000a0: 71a0 2cc0 3fc4 8e3f 13a7 9d40 3434 2440
000000b0: 95dd c0c0 0e63 c03f 1a70 a9c0 a489 d03d
000000c0: d73c 853e fe93 9840 f4c3 9bc0 e045 eb40
000000d0: 7941 f2bf 9424 9140 2512 8340 2c9a 2540
000000e0: cdee 6a40 39e8 4bc0 fcd3 f3c0 9de1 2840
000000f0: 7db1 6540 84fa b040 9b33 ca40 d569 583f

running_var f4 [64]
11.612181 85.65433 82.22605 21.870344 34.298832 23.150293 35.76558 36.868214
31.840881 25.018963 43.614883 19.573755 41.72776 9.092162 62.90505 13.906553
51.793037 32.799152 18.180834 25.321533 9.922664 8.740807 13.5584955 35.533226
21.19466 41.416275 17.935535 69.80569 18.709381 30.50936 18.208683 45.00309
65.53476 16.648367 26.555555 39.933544 39.94485 17.306425 33.46877 58.398136
41.168827 29.755924 36.42728 32.847984 27.526966 41.516094 42.74102 20.901964
39.753822 13.651127 37.36899 35.547287 23.426502 15.533624 37.253826 39.64291
21.776596 53.202866 21.00643 13.63976 38.723064 22.78316 40.12048 4.3400326
00000000: 7ecb 3941 044f ab42 bd73 a442 77f6 ae41
00000010: 0132 0942 cd33 b941 f40f 0f42 0d79 1342
00000020: 20ba fe41 d626 c841 a475 2e42 0d97 9c41
00000030: 3ae9 2642 7f79 1141 c59e 7b42 3e81 5e41
00000040: 122c 4f42 5532 0342 5972 9141 8092 ca41
00000050: 3bc3 1e41 58da 0b41 99ef 5841 0622 0e42
00000060: aa8e a941 44aa 2542 fa7b 8f41 839c 8b42
00000070: d0ac 9541 2b13 f441 62ab 9141 2a03 3442
00000080: cc11 8342 db2f 8541 c771 d441 f3bb 1f42
00000090: 87c7 1f42 8f73 8a41 05e0 0542 b197 6942
000000a0: e1ac 2442 220c ee41 89b5 1142 5664 0342
000000b0: 3a37 dc41 7b10 2642 cef6 2a42 3937 a741
000000c0: ea03 1f42 046b 5a41 d979 1542 6c30 0e42
000000d0: 7a69 bb41 b989 7841 eb03 1542 5792 1e42
000000e0: 7836 ae41 bccf 5442 2b0d a841 753c 5a41
000000f0: 6be4 1a42 e943 b641 5f7b 2042 8ce1 8a40
