anger_model.pth (torch, 938514 bytes, 36 tensors)

weight f4 [64, 11, 3, 3]
000000 13 e6 62 3e a0 9b 3d 3e 09 20 6c 3e 10 40 66 3e
       0.22158079 0.18516397 0.23059095 0.22485375
000010 58 2a d2 3d 59 34 5c 3e 15 4a 83 3e 33 04 7f 3e
       0.10261983 0.21504344 0.25642458 0.24903946
000020 eb ed 66 3e 2f 18 d4 bd 82 5a 69 bd cc d6 9a ba
       0.22551696 -0.10356175 -0.05697108 -0.0011813282
000030 21 65 90 bd 1d 46 38 bd ac 5f 73 3d 7c 1e a0 bc
       -0.07050539 -0.04498874 0.05941741 -0.019545786
000040 71 58 a1 3d 29 91 62 bd 67 63 54 3d a1 72 00 3e
       0.07878197 -0.055314217 0.05185261 0.12543727
000050 5d 44 14 3e eb df 68 3e 91 30 03 3e 3b cc c1 3d
       0.14479204 0.22741668 0.12811495 0.09462782
000060 f2 1d 74 3e 7c 2b 22 3e 42 90 49 3e 57 65 09 bd
       0.23839548 0.158369 0.19683936 -0.03354391
000070 34 1c 9c bd 38 b5 da bd 01 17 b2 bc 32 30 db bd
       -0.07622567 -0.10679096 -0.021739485 -0.10702552
000080 23 01 55 bd 43 b2 cb bc c4 3c 0b be 93 01 a8 bc
       -0.052003037 -0.024865275 -0.13597399 -0.020508563
000090 31 87 bf 3d 9b 25 42 3c e2 d7 0c 3e 0a ac 80 bc
       0.093519576 0.011849786 0.13754228 -0.015707035
0000a0 bf 57 88 bd e7 3d 1a bd df 0e 40 bd a0 79 f0 3c
       -0.06657361 -0.03765669 -0.046889182 0.02935487
0000b0 02 b2 be bd b9 ef ff 3d 39 fd 0b bd e1 66 a9 bc
       -0.09311296 0.12496895 -0.03417704 -0.02067894
0000c0 22 37 49 3e 39 f9 cf 3d d8 b7 bd bc 48 f1 0a 3e
       0.19649938 0.10154957 -0.023158953 0.13568604
0000d0 be 7a 24 3e 48 3e 54 bc aa 58 e6 3b ad 23 69 3d
       0.16062447 -0.012954302 0.0070296125 0.05691879
0000e0 50 b6 4b 3c 5d 97 61 bd df fc 91 3d 62 9e 5e bd
       0.012433603 -0.055075992 0.071283095 -0.054350264
0000f0 63 d2 9e 3c 49 ac 96 bd a1 81 ad bc a4 23 cb bd
       0.01938743 -0.073570795 -0.021179976 -0.09918907
000100 f1 bb 80 bc 22 37 69 bc 65 f8 ea bd 19 c1 69 3d
       -0.015714617 -0.014234336 -0.11473159 0.057068918
000110 97 b9 6f 3c 0d ca bb bb d3 d9 59 bd 11 ad 31 3d
       0.01463165 -0.0057308734 -0.05318625 0.04337794
000120 a0 ee 05 3e 5a 08 34 bd 53 1a d0 3d 3d 75 83 3c
       0.1307931 -0.043953277 0.10161271 0.016047115
000130 3d 82 93 bc d0 59 3e bd 90 f0 ef 3c e5 f0 58 bd
       -0.018006438 -0.04647237 0.029289514 -0.05296411
000140 31 71 8c 3d 79 0b 82 bd 69 33 be bd bf 6b ad bd
       0.06857527 -0.063498445 -0.092871495 -0.084678166
000150 3a da 66 bb 1d 9d c9 3d c6 47 68 3d 14 69 2e 3d
       -0.0035225288 0.0984442 0.056709073 0.04258068
000160 aa 05 10 3d 40 d6 9c bb 38 1d 66 bd 26 7b f1 bc
       0.03516165 -0.004786283 -0.05618021 -0.029477667
000170 36 2a 18 3d 77 13 02 3e 95 c1 ce 3d 90 18 ee 3d
       0.03714963 0.12702738 0.100955166 0.11625779
000180 ac a6 95 3d e2 af ae 3d cb 19 9d bc 67 89 e5 bd
       0.07307181 0.08529641 -0.019177338 -0.11207848
000190 c8 8f c0 bd 20 f0 52 3d 40 0a 4f bd 4d 73 28 bd
       -0.09402424 0.051498532 -0.050546885 -0.041125584
0001a0 00 e8 e1 3b ba 64 c8 bd bc 23 83 bd 5c d6 96 bd
       0.0068941116 -0.09784837 -0.064033 -0.073651046
0001b0 3c 39 b7 bd c9 2e 87 bc 8f d2 71 bd c8 d4 86 bd
       -0.089464635 -0.016501801 -0.059038695 -0.065835536
0001c0 f1 88 b7 3c 3c ce 89 bc 20 ca 09 be a3 e4 0e be
       0.022404166 -0.016821973 -0.13456011 -0.13954405
0001d0 58 2f 39 be 88 4c 47 be af 52 81 bd f0 5a 3d bd
       -0.18084466 -0.19462788 -0.06314599 -0.046229303
0001e0 77 c5 b4 bd d1 e0 bd bd 3e 5c c7 bd 23 fe 30 be
       -0.08826726 -0.09271396 -0.09734391 -0.17284445
0001f0 19 1b 44 be 93 16 a4 bd 0b bb 43 bd 85 63 22 bd
       -0.19150962 -0.08012118 -0.0477858 -0.03964569
000200 f5 d3 22 be 08 24 42 bd 31 e8 f7 bd 48 d2 34 bc
       -0.15901168 -0.047397643 -0.12104834 -0.011036463
000210 98 23 cf bd 87 78 2f be 5a fa 29 be 67 e6 7e be
       -0.10114211 -0.17135821 -0.16599408 -0.24892579
000220 d0 74 7c bd 24 9e 6b be 78 20 ed bd c9 f2 a4 bd
       -0.06163484 -0.23009545 -0.115784585 -0.0805412
000230 8c e8 42 be 3f f5 ab bd 4e dd a8 bd 8c 3c 2d be
       -0.19034022 -0.08396386 -0.082453355 -0.16917628
000240 b0 d9 1c 3e ec a0 50 3e 81 25 14 3e ff 19 6e 3e
       0.15317416 0.20373887 0.14467432 0.23252104
000250 3d 87 00 3e fe 99 59 3b 23 07 5e 3e 13 b4 42 3d
       0.1255159 0.0033203359 0.2168241 0.047535013
000260 f4 7c 98 3d b5 ce 32 be ea 1b ac bd 90 2f 37 be
       0.07445708 -0.17461665 -0.08403762 -0.17889237
000270 ef 50 f8 bd 0e b6 0c bd 52 17 72 bd a3 a7 2d be
       -0.12124812 -0.03435331 -0.05910427 -0.1695848
000280 95 67 65 be 74 2f 2c be b1 d4 31 3d c5 0b fe 3c
       -0.22402795 -0.16814977 0.04341573 0.031011472
000290 08 25 af 3c c1 cd a9 3d 74 ea 8c bd 38 35 25 bd
       0.021379963 0.082911976 -0.06880656 -0.040333956
0002a0 86 24 ef 3d 82 d3 83 3c 46 9b c1 bd ee f1 a5 bc
       0.11676888 0.016092066 -0.09453444 -0.020256963
0002b0 48 58 9f 3d 7a d1 a3 3d 16 44 d4 3c 59 ab 9f bd
       0.0778051 0.07998939 0.025911372 -0.07796354
0002c0 bd 62 dd 3d f0 bc b5 bc 89 08 2e 3c 43 0c 32 3d
       0.108098485 -0.022184819 0.010622152 0.043468725
0002d0 71 62 36 3d 35 63 75 bd 11 00 ee bd 12 ad 5d bd
       0.044527475 -0.059909064 -0.116211064 -0.05412013
0002e0 44 aa a9 3b 3e a6 d9 3c e8 77 81 bc 57 44 29 bc
       0.005177768 0.026568528 -0.015804246 -0.010331235
0002f0 6a f8 68 bd 90 e7 ee bd e4 5e be bb 0c ad c3 bd
       -0.05687753 -0.11665261 -0.0058096517 -0.095544904
000300 85 7f 1c 3d 1a 5c be bd 59 33 12 be a9 1e 10 3c
       0.03820755 -0.09294911 -0.142774 0.008796372
000310 e3 f1 02 be a4 c6 02 be 1c b7 6d bd ed dc f4 bd
       -0.12787585 -0.12771088 -0.058035955 -0.11956201
000320 4a 1d b0 bc ea 80 59 bd dc 98 8c bd 79 22 97 3c
       -0.021498341 -0.053101458 -0.06865093 0.018449055
000330 28 62 11 be f6 a0 7c 3c 40 8c ce bd 91 b4 3c bd
       -0.141976 0.015419235 -0.10085344 -0.04607064
000340 83 08 c7 bd 0e 4f fb bb 9c d6 da bc d2 38 37 be
       -0.0971842 -0.007669336 -0.026713662 -0.17892769
000350 f2 32 0a be 41 47 3b bd 1b 80 59 ba 17 2f 78 bd
       -0.13495997 -0.04572225 -0.0008296982 -0.060591783
000360 4e e1 e1 bc 16 bb 8c bc 29 40 09 bd 2f 49 c5 3c
       -0.027573254 -0.017179053 -0.033508454 0.024082748
000370 29 62 41 bc c5 8a c3 3c 66 1f 79 3c 2f ff 13 be
       -0.011803188 0.023869881 0.01520524 -0.14452814
000380 b9 e3 05 bd 53 77 0f be 71 52 17 bd 7b d3 64 be
       -0.032687876 -0.14010362 -0.036943857 -0.22346298
000390 d1 6c 2d be 5e a9 da bd fa 5f 5e be 28 a8 7d bd
       -0.16936041 -0.106768355 -0.217163 -0.061927944
0003a0 5e 36 c2 bd af ca 84 bd c5 a7 80 3a bf 1a 75 bd
       -0.09483026 -0.06483971 0.0009815624 -0.05983996
0003b0 4b 17 bf 3d fa 15 e7 3c 91 4f 76 bd 04 36 bc 3c
       0.09330615 0.028208721 -0.060134474 0.022974975
0003c0 b7 60 a4 bd 4d 06 93 3d 22 65 c0 bc af e1 bb 3b
       -0.080262594 0.07178936 -0.023485724 0.0057336907
0003d0 97 af e9 bc cf 8e e9 bd 89 94 9f 3c d2 16 54 bd
       -0.02852611 -0.11404192 0.019480007 -0.051779576
0003e0 b0 a4 0c be ef 42 a9 bc 51 86 10 be 9c d5 4f bd
       -0.13734698 -0.0206618 -0.14113738 -0.050740823
0003f0 a2 6c aa bc 5f 23 96 3c cf 61 97 bc a4 19 2d 3d
       -0.020803753 0.018327413 -0.018479256 0.04226078

weight f4 [64]
000000 ea 6d 84 3f e5 db 60 3f 42 ed 6c 3f 3d 12 70 3f
       1.0346043 0.8783553 0.92549527 0.9377783
000010 ef 3e 73 3f 37 7a 8c 3f 1f 42 8d 3f f5 a1 8f 3f
       0.95017904 1.0974797 1.1035804 1.12213
000020 cb e7 4f 3f 3e c2 71 3f 65 fa 96 3f 1b ea 72 3f
       0.81213063 0.94437015 1.1795164 0.94888467
000030 d2 9c 74 3f 3a b8 42 3f 07 0e 58 3f e9 9d 68 3f
       0.9555179 0.7606236 0.84396404 0.9086595
000040 f9 b0 5e 3f fc 95 50 3f 1f 26 80 3f 8c 88 6f 3f
       0.8698879 0.8147886 1.0011634 0.9356773
000050 81 93 6e 3f d4 fe 3d 3f 6f 0c 78 3f ce 0e 50 3f
       0.93193823 0.7421696 0.9689397 0.8127259
000060 54 27 7c 3f 73 e2 3e 3f ee 82 83 3f f1 64 64 3f
       0.9849751 0.74564284 1.0274332 0.89216524
000070 44 4d 7c 3f d1 6a 58 3f 87 57 55 3f 0a 40 62 3f
       0.985554 0.8453799 0.8333668 0.88378966
000080 a0 39 69 3f 70 19 84 3f 91 cd 8c 3f d2 5d 87 3f
       0.91103554 1.0320263 1.1000234 1.0575507
000090 56 f1 72 3f d5 73 89 3f 1e 18 64 3f 23 96 56 3f
       0.948995 1.0738474 0.890993 0.8382284
0000a0 f4 8a 76 3f 94 c3 6c 3f 53 e5 65 3f 7d 91 73 3f
       0.96305776 0.9248593 0.89803046 0.9514387
0000b0 49 b0 80 3f 39 2c 47 3f cc 93 76 3f c0 b0 70 3f
       1.0053798 0.77801853 0.9631927 0.940197
0000c0 35 76 6d 3f 12 fe 89 3f 1f d7 7f 3f c1 39 56 3f
       0.92758495 1.0780661 0.99937624 0.83681875
0000d0 f8 1e 74 3f ec 02 35 3f 4c 77 83 3f 25 17 8a 3f
       0.95359755 0.70707583 1.0270782 1.0788313
0000e0 61 7d 45 3f aa eb 6f 3f 4d 5c 20 3f 29 dc 36 3f
       0.7714444 0.9371897 0.6264084 0.7142969
0000f0 6d 9d 5e 3f f9 ea 5f 3f 74 03 7f 3f af e6 48 3f
       0.8695896 0.87467915 0.99614644 0.78476995

bias f4 [64]
000000 4b 89 c2 3b 44 11 c4 bc 44 f9 21 be 4f a0 03 be
       0.0059367768 -0.023934014 -0.15817744 -0.12854122
000010 30 a8 d5 bc 94 25 43 be 44 d3 66 bd a6 f4 ad 3d
       -0.026081175 -0.19057304 -0.056353822 0.084939286
000020 54 ff 7e be da bc 1a bc 0f fd 07 3e dd 58 27 be
       -0.24902087 -0.00944444 0.13280128 -0.16342492
000030 36 7f 3e be 2a 96 7c bd 16 a1 88 be c2 f6 08 be
       -0.18603215 -0.061666645 -0.266854 -0.1337538
000040 0e ae cb bd 4e 01 4c be 94 c7 88 bd 65 dc 8d bc
       -0.09945308 -0.19922373 -0.066786915 -0.017317006
000050 4a 3c 2a be 1e 25 43 be 9f 47 bb bc ec 40 55 be
       -0.16624561 -0.19057128 -0.0228613 -0.20825547
000060 c2 f3 32 bd eb 50 03 be 15 2f ab 3d fb 83 09 be
       -0.043689497 -0.12823837 0.083585896 -0.13429253
000070 21 89 66 bd eb 0d 41 be 5e 17 27 be 31 7a 0d be
       -0.05628312 -0.18852966 -0.16317508 -0.13816144
000080 d6 7f 6e be 07 fa 15 3d 8b 91 bf 3d 3f f0 3f 3c
       -0.23290953 0.036615398 0.09353932 0.011714994
000090 84 9f 17 bd 3e ff 5d 3d 20 08 47 3d 40 6f 52 be
       -0.03701736 0.054198496 0.048591733 -0.20550251
0000a0 0c 77 62 be 47 40 8f bd 26 67 4a be 32 80 c7 bd
       -0.22115725 -0.06994682 -0.1976591 -0.09741248
0000b0 8b 74 47 3d 08 96 00 be 22 b0 a4 bd dd 25 03 be
       0.04869513 -0.12557232 -0.08041407 -0.12807412
0000c0 32 2c c4 bd 5a 33 a0 bb 29 09 cc bc 82 a0 78 be
       -0.09578742 -0.004888934 -0.024906712 -0.24279979
0000d0 b8 d1 80 bd 22 2a 67 bc 8b 77 c9 bc a7 19 a4 3d
       -0.06290001 -0.014109166 -0.024593135 0.08012705
0000e0 75 3a 4e be 05 9f 5b bd 92 ba 94 be 48 41 e8 be
       -0.20139487 -0.05361845 -0.29048592 -0.45362306
0000f0 21 c1 62 be 55 b1 15 be cd 0c fe bd 90 91 53 be
       -0.22143985 -0.14618428 -0.12404785 -0.20660996

running_mean f4 [64]
000000 a5 ce 9e 3c 18 46 ea bd 56 17 bc bd e5 61 18 be
       0.019385645 -0.114391506 -0.091841385 -0.14881094
000010 a0 8d 5e bd c1 c4 48 3b 0b ef 31 3e ba cc 23 be
       -0.054334283 0.0030634853 0.17376344 -0.15996066
000020 1e 6d 83 3c 4b ec 85 bd a1 4f 78 bc eb ca 1c 3e
       0.016043242 -0.0653921 -0.015155704 0.15311782
000030 4a 19 6a be 56 23 86 bd 8f 07 57 3e cc da 55 bd
       -0.2286121 -0.065497085 0.20998977 -0.052210614
000040 a5 56 51 bc 04 2a f4 3c 57 9b 25 be 48 d1 09 bd
       -0.012777005 0.02980519 -0.16172539 -0.03364685
000050 1a 09 04 3e 17 dd 14 bd fc 45 fd 3d ce db a3 bc
       0.12894097 -0.03634366 0.12366864 -0.020002272
000060 ea b7 a3 bc da 00 9d bd dc c6 14 be 93 f1 7e bd
       -0.019985158 -0.07666178 -0.14528984 -0.062242102
000070 3d 87 83 3c da a3 c4 3c d6 aa 8a be 1f f0 1a 3e
       0.016055698 0.024003912 -0.27083462 0.15130661
000080 3f 65 33 bd 06 a8 bb bd f8 69 d2 3d 51 84 0f bd
       -0.043797728 -0.09162907 0.10274118 -0.035038296
000090 ae 15 9f bd a0 d6 e3 3d 6b 42 81 bd 78 1d 17 bd
       -0.07767807 0.11124921 -0.06311496 -0.036893338
0000a0 da e7 de bd ee 85 20 bd 8b 52 e3 3c 45 7d 04 be
       -0.10884066 -0.039190225 0.02774932 -0.12938412
0000b0 95 82 b4 bc af 14 04 bd b2 ea 80 bd a7 ad ec bd
       -0.022034923 -0.032246288 -0.062947646 -0.11556559
0000c0 b3 bf 0c be e2 18 17 3c 68 80 53 bd 21 e6 40 3e
       -0.13745002 0.009222241 -0.05163613 0.18837787
0000d0 0f 4c 76 3d 3e d1 a6 bd 8c fc 04 3c c6 01 82 3d
       0.06013113 -0.081453785 0.0081168525 0.063479945
0000e0 86 b6 d7 bd eb f6 e6 bc 7d 24 e7 bc 2b d8 1b 3e
       -0.105328605 -0.028193912 -0.028215641 0.1521918
0000f0 10 7e d6 bb c5 76 df 3d c8 95 5f 3e 76 19 18 bb
       -0.0065457895 0.10911325 0.21834481 -0.0023208535

running_var f4 [64]
000000 c2 84 80 40 42 4c 09 41 3e b5 ca 40 42 2a 38 41
       4.016206 8.581118 6.3346243 11.510317
000010 b7 77 cb 40 f2 21 9b 40 fa c0 05 41 af bd 2b 41
       6.3583636 4.8478937 8.359613 10.733809
000020 96 78 9e 40 89 13 ab 40 2b 60 d5 40 b6 d1 e3 40
       4.95222 5.3461347 6.6679893 7.1193495
000030 dc 94 86 41 40 68 1f 41 b9 67 75 41 18 8f ea 40
       16.822685 9.962952 15.337823 7.3299675
000040 b2 54 92 40 43 8f a0 40 5a ca 2f 41 d1 a6 cb 40
       4.572839 5.017488 10.986902 6.3641133
000050 c4 a3 d1 40 b9 ee 46 40 9d 34 23 41 cf 52 a5 40
       6.551241 3.1083205 10.200345 5.1663585
000060 6c 48 c0 40 37 0c d4 40 66 ef fd 40 57 0f b5 40
       6.0088406 6.626491 7.9354734 5.6581225
000070 ab 0d c8 40 60 46 ef 40 1d 04 91 41 c9 c6 df 40
       6.2516685 7.4773407 18.127008 6.993016
000080 3a 0e 5f 40 c6 d4 0c 41 8f 80 a6 40 46 e7 1d 41
       3.4852433 8.801947 5.203193 9.868963
000090 33 85 a8 40 7c 20 ba 40 84 15 c6 40 ee 2f 3c 40
       5.2662597 5.8164654 6.1901264 2.9404254
0000a0 9a 80 46 41 31 ca cc 40 07 2e 13 40 fc d4 81 41
       12.406397 6.3996816 2.2996843 16.228996
0000b0 08 78 a8 40 dc ee c2 40 bc d9 e0 40 45 2d be 40
       5.2646523 6.0916576 7.026579 5.943026
0000c0 52 14 2d 41 e1 e5 dd 40 49 4e ad 40 97 eb 1a 41
       10.817461 6.9343114 5.4158063 9.682517
0000d0 ae cd d0 40 8f 3a d9 40 39 9d a6 40 a5 6a c7 40
       6.5251074 6.7883983 5.206692 6.231768
0000e0 2d d1 02 41 2a 2b a1 40 33 8e b4 40 77 ca f2 40
       8.176068 5.036519 5.6423583 7.587215
0000f0 2d 5e 09 41 63 bf 93 40 23 b8 61 41 16 de 37 40
       8.585492 4.6171126 14.107455 2.87293

weight f4 [64, 64, 3, 3]
000000 49 73 88 bc 0a c5 c1 39 41 74 7a bc 4f 26 a7 3c
       -0.016656535 0.00036958634 -0.015286506 0.02040401
000010 2d 9a fe 3b 1b 3e 08 3d 95 7d 72 bc 51 7b ff 3c
       0.007769844 0.033262353 -0.014800449 0.031186732
000020 c3 f1 6f 3c 02 0f cc bd a8 fc db bc 70 04 9b bd
       0.014645043 -0.099638 -0.026853874 -0.07569206
000030 24 31 68 bd eb 15 a3 bd 92 16 dd bd 37 f6 c6 bd
       -0.05668749 -0.07963165 -0.107953206 -0.097149305
000040 d9 dd d4 bc 7f df c0 bd 19 e8 ab 3d b1 a9 e0 3d
       -0.025984691 -0.094176285 0.083938785 0.10969866
000050 f0 b0 91 3d 53 e9 e2 3d a5 3f 91 3d 1a 28 cd 3d
       0.07113826 0.11079659 0.07092217 0.100174144
000060 e5 c2 8d 3d fe b7 c6 3d 21 26 89 3d 60 66 c1 3d
       0.06921939 0.097030625 0.06696726 0.094433546
000070 38 81 14 3e 8b 1e 05 3e b8 73 bc 3d 46 52 10 3e
       0.14502418 0.12999932 0.09201759 0.14093885
000080 f0 a0 98 3d ce 76 a0 3d e6 db 05 3e bd 4e 04 3e
       0.074525714 0.0783516 0.13072166 0.12920661
000090 ff 64 8b bd 19 24 23 3b 46 aa 85 3c f3 16 35 bd
       -0.06806373 0.0024893342 0.016316544 -0.04421134
0000a0 89 71 53 bd 99 4f 1f bc 38 eb 69 bb 5f d8 b3 bc
       -0.051621947 -0.009723567 -0.003569318 -0.02195376
0000b0 ec 40 d5 3b 08 e6 a6 3d 2f e2 71 bd fe 2d de 3b
       0.0065079834 0.08149344 -0.059053596 0.006780385
0000c0 70 21 18 bd cd 4b a0 bd 02 3a d6 bc 8c f8 0a 3d
       -0.037141263 -0.07826958 -0.026150707 0.03392844
0000d0 7a 66 c1 bd 2b b1 f4 bb f0 8a 13 3d 46 8b 0d 3c
       -0.09443374 -0.007467409 0.036021173 0.008639162
0000e0 f9 f1 94 3d 7b aa 9c bc 85 e7 1b bd 9a 07 e1 3c
       0.07272715 -0.01912426 -0.03806259 0.027469445
0000f0 30 f2 9d bc 2a ab 97 bc 6d 2a a7 bb de 07 c1 3d
       -0.019280523 -0.018514235 -0.005101493 0.09425329
000100 48 db 0d 3d 84 26 b2 3c 59 31 89 3d 45 58 3c 3d
       0.03463295 0.021746881 0.066988654 0.045982618
000110 5d e7 7f 3d 08 5e 64 3d 08 7d d7 3c f9 98 3d 3d
       0.062476505 0.055753738 0.026304737 0.046288464
000120 05 11 dc 3d 32 35 69 3d 98 30 74 3d 90 7b 92 3d
       0.10745434 0.056935497 0.059616655 0.07152474
000130 8e 1c 38 3d 19 f3 ce 3d 17 9c 3b 3d 76 ac b6 3d
       0.044949107 0.10104961 0.045803156 0.08919613
000140 9f 00 ec 3d f2 f3 85 bd 8e 3b e7 bc 7a 69 00 bc
       0.11523556 -0.065406695 -0.02822664 -0.007837648
000150 15 03 9b bd 73 46 e9 bb 3a 7b 0f bd f9 e6 e3 bd
       -0.07568947 -0.007118994 -0.035029627 -0.11128039
000160 be 1d cf bd c1 4c ba bd 0e e2 43 3d ac bf f2 3c
       -0.10113095 -0.09096671 0.047823004 0.029632412
000170 76 f9 19 3d 2a 85 d1 3c 74 6f 38 bc 44 8e 6e 3d
       0.03759142 0.025576193 -0.011257041 0.058241144
000180 62 25 68 3b a4 46 90 3c 72 34 81 3d 76 51 36 3d
       0.0035422673 0.01761181 0.06308831 0.04451128
000190 68 68 9d 3c 6e 2b 5b 3d dc eb 0b 3c 33 41 4a 3d
       0.019214824 0.053508215 0.00854012 0.049378585
0001a0 00 c6 1e 3c d2 39 2e 3d 95 d0 4d bc 93 c3 66 3d
       0.009690762 0.04253561 -0.012561937 0.056338858
0001b0 e6 6e 91 3d 16 1a a2 3d 78 98 7b 3d 6d 9f 89 3d
       0.0710123 0.07915132 0.061424702 0.06719861
0001c0 67 7e 44 3d fe 22 b4 3d 73 6f ad 3d 76 93 74 3d
       0.04797211 0.08795737 0.08468523 0.059710942
0001d0 9c a1 af 3d a8 84 86 3d 28 bf c1 3c a5 ed a6 3d
       0.085757464 0.06568271 0.02365072 0.08150796
0001e0 ef 19 13 3d 97 b4 a0 3c e2 d3 20 3a aa 2d cf 3c
       0.035913404 0.019617362 0.00061350886 0.025290329
0001f0 57 0c 92 3c ba 1b 00 3d 33 97 9b 3d 9c 4d 66 3d
       0.01782815 0.031276442 0.07597198 0.056226358
000200 01 c8 0b 3d ba eb 8a 3d 3d 85 6f 3d bb 27 32 3d
       0.034126285 0.067832425 0.058476675 0.04349492
000210 8d 36 7b 3d 8f 96 f4 3c d3 4a d0 3b ed c9 31 bc
       0.06133132 0.029856948 0.006356576 -0.0108513655
000220 2a e4 7c bc 78 a6 50 bd 12 62 49 bd cd db 09 bd
       -0.015435258 -0.050940007 -0.049165793 -0.033656884
000230 82 b8 29 bd e4 8e 91 3c 1e cc 44 bd 50 ef e5 bc
       -0.041435726 0.01776833 -0.048046224 -0.028068215
000240 0e 72 e5 3d 62 d5 df 3d 02 f6 b7 3d 0d 79 ef 3d
       0.11203395 0.109293714 0.08982469 0.116930105
000250 05 3e be 3d cb ec 90 3d 8a 71 8e 3d d9 10 dc 3d
       0.09289173 0.07076415 0.069552496 0.10745401
000260 76 d7 cc 3d 67 8e fc bd 10 61 68 3d da ab 80 3d
       0.100020334 -0.123318486 0.05673319 0.06282778
000270 b9 2b 83 bd da a2 91 3c e3 7b 51 3c 97 bf 18 bd
       -0.06404824 0.017777849 0.012785885 -0.03729209
000280 3b 27 c5 bc 33 29 85 3b 9f c7 17 3d 0e 59 95 bc
       -0.024066558 0.004063749 0.037055608 -0.018230941
000290 84 6e 0d 3d 47 af 35 bb 95 5a dd bc 68 e8 08 bd
       0.034529224 -0.0027722882 -0.027020732 -0.033424765
0002a0 3b 43 b0 3c 13 99 02 3d 56 c5 3d bc f8 b7 5d 3d
       0.021516433 0.031884264 -0.011582693 0.054130524
0002b0 fc 23 da 3b 51 d0 9a 3c 66 8a 90 bd 55 6a 90 bd
       0.0066571217 0.018898161 -0.070576474 -0.07051531
0002c0 c0 3e 83 3c c6 66 8a 3b 15 eb 2d bc 25 8a a2 3b
       0.016021132 0.0042236773 -0.01061513 0.004960316
0002d0 e6 68 90 bb 64 29 31 ba 7a 10 25 bd 36 03 99 bd
       -0.004407036 -0.0006758182 -0.040298916 -0.074713156
0002e0 98 c2 da bd ef 92 b6 bd c5 e0 70 bd de fb a8 bd
       -0.10681647 -0.08914744 -0.058808107 -0.08251165
0002f0 31 5c b7 bc b9 ea 02 bc 07 e6 7d bc 77 21 37 bd
       -0.022382827 -0.007990533 -0.015496737 -0.04470965
000300 1b a3 2c bc f5 9c 3c bd e1 3b 33 3b 70 76 46 bd
       -0.010536934 -0.046048123 0.0027348923 -0.048452795
000310 e8 92 dd bc 1b 70 70 bc 14 44 39 bd d3 9c 09 bd
       -0.02704759 -0.0146751655 -0.04523094 -0.033596825
000320 4e be a0 bd 53 7e c6 bc 4e 9f 93 bd e3 9d a4 bd
       -0.07848798 -0.024230158 -0.07208119 -0.08037927
000330 7d f1 6b bc 0a c3 b5 bd 95 75 7d bd 79 49 63 bd
       -0.014400837 -0.088750914 -0.061879713 -0.05548999
000340 21 fd 09 bd b5 c7 51 bc 61 a3 e1 bc 6c 33 5b 3c
       -0.03368867 -0.0128039615 -0.027543725 0.013378959
000350 e9 41 5f 3c f7 80 95 3c b4 54 df 3c 91 b7 7b bc
       0.013626554 0.018249972 0.02726207 -0.01536359
000360 50 7e 98 bd 19 cf c6 bd 3a 00 b8 bd 02 b5 98 bd
       -0.07445967 -0.097074695 -0.08984418 -0.074563995
000370 21 8f f8 bd bc d4 3b bd 9b 4a cd bd ad e0 e0 bd
       -0.12136675 -0.045857176 -0.100239955 -0.109803535
000380 9c 2d ab bd dd dd b8 3d c4 a0 93 3d 3d 4a 39 3d
       -0.08358309 0.09026692 0.07208398 0.045236815
000390 cb ad 85 3d f2 76 c5 3c a7 99 40 3d 59 1f db 3d
       0.06527289 0.02410457 0.047021534 0.106993385
0003a0 dc ae 19 3c 9b 7c fd 3c d4 d5 ee 3c 8e 7d 31 3d
       0.009380069 0.030943206 0.029154696 0.04333263
0003b0 f1 5e cd 3d 17 ed a4 3d 10 44 4f 3d 55 8f bc 3d
       0.10027874 0.08053034 0.05060202 0.09207026
0003c0 5a 1f d8 3d c9 6e c0 3d de 63 89 3d f3 29 91 3d
       0.10552855 0.093961306 0.06708501 0.07088079
0003d0 21 11 bd 3d f4 bd 0e 3e 5e 46 84 3d e0 e5 02 3e
       0.09231783 0.13939649 0.06458734 0.12783003
0003e0 67 3d 80 3d 05 7c d2 3d 2d 58 cd 3d 87 a9 5d 3d
       0.062617116 0.10277561 0.10026584 0.054116752
0003f0 42 0c d8 3d 1d cd d1 3d c7 73 98 3d 47 cd fa 3c
       0.10549213 0.102442004 0.07443958 0.030615462

weight f4 [64]
000000 ea c1 61 3f 23 ec 85 3f 75 b2 5f 3f 62 7b 71 3f
       0.88186514 1.0462688 0.8738168 0.9432889
000010 e8 a9 99 3f 2a 2a 85 3f d1 26 72 3f 6a 46 8d 3f
       1.2004976 1.0403492 0.9459048 1.1037114
000020 ed 1f 6b 3f 43 0c 99 3f 0d 0a 6b 3f 8d 6a 72 3f
       0.9184559 1.1956867 0.9181221 0.94693834
000030 0a 8d 7f 3f dc 5f 7f 3f a4 ca 63 3f 94 a7 85 3f
       0.99824584 0.99755645 0.8898108 1.0441766
000040 e7 92 a3 3f 09 02 6e 3f 9b e0 6e 3f 69 4d 99 3f
       1.2779206 0.92971855 0.9331147 1.1976749
000050 98 1b 7b 3f 8c d9 6e 3f 2b 60 86 3f e7 1b 6c 3f
       0.9808898 0.933007 1.0498098 0.92230076
000060 71 67 72 3f 7a 98 69 3f c0 f8 85 3f 54 ef 7e 3f
       0.9468909 0.91248286 1.0466537 0.99583936
000070 44 6c 7e 3f b6 72 8d 3f d3 dd 64 3f f8 cb 96 3f
       0.9938395 1.1050632 0.89400977 1.1780996
000080 5b ff 68 3f 4a 1b 63 3f df a9 6c 3f e8 48 84 3f
       0.9101464 0.88713515 0.924467 1.0334749
000090 f1 a3 90 3f d1 ca 82 3f 46 bc 5a 3f f2 c4 66 3f
       1.1300031 1.0218145 0.8544353 0.90144265
0000a0 84 67 90 3f c8 e2 91 3f 3d 4b 77 3f fb 78 64 3f
       1.128159 1.1397333 0.9659918 0.892471
0000b0 36 5d 88 3f a7 ec 5b 3f 24 ab 6a 3f aa a9 74 3f
       1.0653446 0.8590798 0.9166739 0.95571387
0000c0 80 f9 89 3f 78 db 75 3f e8 ae 5d 3f 4a 71 61 3f
       1.0779266 0.9603801 0.8659501 0.8806349
0000d0 60 7a 7c 3f 06 4b 79 3f c2 83 68 3f c2 95 71 3f
       0.9862423 0.973801 0.90826046 0.9436914
0000e0 93 f9 83 3f b7 84 8d 3f 83 55 93 3f 2b 27 68 3f
       1.0310539 1.1056126 1.1510471 0.90684766
0000f0 6b 87 7d 3f ca 13 8a 3f 9d 74 84 3f 7c f2 86 3f
       0.99034756 1.0787289 1.0348088 1.054275

bias f4 [64]
000000 45 21 c2 bd 43 2e e1 3d d8 8d 20 be 0d 97 a5 bd
       -0.09479002 0.10995152 -0.15679109 -0.08085451
000010 80 fb a3 3d 3c 8d c5 3d 5e be 3a 3c da 91 0f 3c
       0.08006954 0.09646079 0.011397926 0.008762801
000020 c3 1f d5 bc 33 26 53 3d 89 53 76 3d 98 b8 59 bd
       -0.026016122 0.0515501 0.06013826 -0.053154558
000030 8b 41 76 bd 3f 11 90 3d 50 d2 5e 3d f1 ff 4e 3e
       -0.0601211 0.070345394 0.05439979 0.20214821
000040 47 36 bb 3b 01 31 b0 bd 1a 6d 32 3e 61 84 27 3e
       0.0057132575 -0.08603097 0.17424431 0.16359092
000050 a8 4f 8b bd 45 a2 82 bd f4 77 09 3e d4 9c 9a 3d
       -0.068023026 -0.06378607 0.13424665 0.07549444
000060 22 6b 50 bd e4 f9 f7 bd 65 16 64 3a 72 84 31 3d
       -0.05088342 -0.1210821 0.0008700847 0.0433392
000070 87 59 ab 3d 4b 2c 47 3c a7 3a bb bc e4 26 2c 3d
       0.08366685 0.012156556 -0.022855116 0.042029276
000080 eb 30 03 be 3f 24 03 bd 5e c6 f9 bd f3 b6 32 3d
       -0.1281163 -0.03201699 -0.12196039 0.043631505
000090 a6 35 b1 3d 02 6f 10 3e e7 f6 9e bd f7 80 56 3e
       0.08652811 0.14104846 -0.07761937 0.20947634
0000a0 a1 4e 04 3e 1c 48 a7 3b 44 12 a4 bd e0 79 c9 bd
       0.1292062 0.0051050317 -0.080112964 -0.09837699
0000b0 7a c7 52 3d 92 d5 8c bb 28 6b cd bd 25 6c d3 bd
       0.051459767 -0.0042979205 -0.10030204 -0.10323361
0000c0 5c d1 87 bc 75 99 3a 3d 68 b9 5c 3d 22 a9 02 bd
       -0.016579323 0.045556504 0.053887755 -0.03189958
0000d0 19 41 5c 3d 17 de 32 3e fb 4a 99 bd 8e 20 ae 3c
       0.05377302 0.17467533 -0.074850045 0.021255758
0000e0 ac 60 a1 3c 98 e9 da 3d 55 7b 3c 3d 6a 8a ab bc
       0.019699417 0.10689086 0.046016056 -0.020940024
0000f0 cd 7c 9c 3c 95 0e c5 3d 09 e6 6f 3d 65 19 26 be
       0.019102478 0.09621922 0.058568988 -0.16220625

running_mean f4 [64]
000000 30 14 6a 40 5d 3b ab be 23 0e 67 bf cf 92 9b 40
       3.6574821 -0.33443728 -0.90255946 4.861671
000010 91 c7 1f c0 a0 f5 8d 40 ea dd 3d bf c1 21 ea be
       -2.4965556 4.4362335 -0.7416674 -0.45728877
000020 8a aa 89 bf 38 0e 07 40 dd 8b 10 bf 4c 02 1b bf
       -1.0755169 2.1102428 -0.56463414 -0.6055038
000030 7a 7a 47 40 52 e6 7c bf 71 1f bd be 69 f8 98 bf
       3.1168504 -0.9878894 -0.3693805 -1.1950809
000040 1f 8e 6c 3e 13 b7 79 3e 98 e2 73 be c6 06 5d c0
       0.2310109 0.24386244 -0.23816907 -3.4535384
000050 be fc 7c 40 7f 6e ca 3f e2 c8 83 bf ce 29 1e bf
       3.9529262 1.5814971 -1.029568 -0.6178254
000060 88 0f 1f c0 c0 46 63 c0 f3 a5 0c bf 74 0f f1 bf
       -2.485323 -3.5511932 -0.5494072 -1.8832841
000070 ca 89 6a 40 18 d0 70 bf 55 b0 3a c0 8d a6 ca bf
       3.66466 -0.94067526 -2.9170125 -1.5832077
000080 cd cf c5 3e 01 d3 13 c0 c3 4a d8 bf 8e 07 44 40
       0.38635102 -2.3097537 -1.6897815 3.062961
000090 13 d6 b3 3f 08 c2 7c 3f 3a 43 5e bf 27 fb ca 3f
       1.4049705 0.9873357 -0.8682133 1.5857896
0000a0 2b 79 85 40 44 62 a4 3f e0 ad 07 c0 37 aa ae bd
       4.171041 1.2842488 -2.1199875 -0.0852856
0000b0 de fa 38 c0 26 a4 ec 3f d5 d0 92 3f 35 29 81 be
       -2.8903117 1.8487594 1.146998 -0.2522675
0000c0 ca d6 f1 bf e1 c4 f1 3e 4e 34 47 bf de 17 a2 3e
       -1.8893673 0.4722052 -0.77814186 0.31658834
0000d0 d2 e7 d6 bf 36 d2 1b 3f 21 83 37 40 84 de 71 3f
       -1.6789496 0.6086763 2.8673785 0.94480157
0000e0 74 8d 04 c0 b5 a2 6b c0 3d f4 28 c0 ac 4a fe 3f
       -2.0711336 -3.6818058 -2.6399071 1.9866538
0000f0 24 cd 3b 3f 37 0c 37 40 0e f6 d6 3f d2 02 0f c0
       0.73359895 2.8601205 1.679384 -2.2345471

running_var f4 [64]
000000 70 cf 86 41 2f 9b d6 41 b7 f3 ba 41 ae 5c 73 41
       16.851288 26.825773 23.369001 15.210127
000010 88 24 92 42 84 42 ee 41 15 c9 c3 41 79 bd d1 41
       73.07135 29.782478 24.473185 26.217516
000020 6e 18 86 41 40 93 60 42 43 4d b2 41 09 38 9f 41
       16.761929 56.1438 22.287725 19.90236
000030 bb 27 81 41 96 9f 80 41 ba 03 9b 41 39 96 07 42
       16.1444 16.077923 19.37682 33.8967
000040 cf 77 59 42 42 6a b6 41 b9 a1 64 41 db a5 26 42
       54.367 22.801884 14.289483 41.66197
000050 7c 10 9b 41 df 91 a2 41 56 9c ec 41 c1 b5 c5 41
       19.383049 20.321226 29.576336 24.713747
000060 f2 83 02 41 3b 93 5d 41 ef e0 11 42 cf 9d 90 41
       8.157213 13.848445 36.46966 18.077055
000070 79 84 b7 41 2c 32 31 41 79 d7 d2 40 4e 89 65 41
       22.939684 11.074749 6.588803 14.346022
000080 05 2d 81 41 7b b6 8f 41 f9 dc 88 41 d2 9b 31 42
       16.146982 17.964102 17.107897 44.40217
000090 63 9c 57 42 6d ec 05 42 11 59 59 41 ed 46 b1 41
       53.90272 33.480885 13.584245 22.159632
0000a0 15 b8 97 41 e7 07 66 42 fd aa 3a 41 3e 71 8c 41
       18.964884 57.507717 11.666745 17.555294
0000b0 9f 8c 23 42 e1 95 7c 41 df c4 5b 41 ee d9 46 41
       40.887325 15.786592 13.735564 12.4282055
0000c0 65 43 eb 41 0b dc 5d 41 e8 f9 cd 41 53 0e 45 41
       29.407907 13.866221 25.747025 12.315997
0000d0 51 c6 a7 41 a3 d2 ee 41 bc 95 76 41 71 cb ef 41
       20.971834 29.85285 15.411556 29.974337
0000e0 c2 06 b3 41 95 5d 34 41 eb 38 11 42 f1 a6 a5 41
       22.3783 11.272847 36.305584 20.706514
0000f0 28 dd 47 41 c3 3e 1e 42 0c d1 a7 41 31 6d 00 42
       12.491493 39.56129 20.977074 32.106632

weight f4 [64, 64, 3, 3]
000000 f2 4a 8f 3d 2e ee 15 3c 78 a8 81 3d d0 12 f5 3b
       0.069967166 0.009151025 0.06330961 0.0074790493
000010 ef b8 9f 3c c6 71 86 3d 10 7a 2f 3d 04 84 40 3d
       0.019497363 0.06564669 0.042841017 0.0470009
000020 71 7e 53 3c b0 a6 84 bd 6c ac 15 bb d1 68 44 bd
       0.012908564 -0.064771056 -0.0022838367 -0.047951523
000030 9c 8a 30 bd 81 84 44 3c 80 b6 db bc 5c 38 84 ba
       -0.04310094 0.011994482 -0.026820421 -0.0010087597
000040 d2 79 32 bd cf eb de bc e2 e7 60 be 80 52 15 be
       -0.04357321 -0.027212052 -0.21963456 -0.14582253
000050 3b 45 53 be ff e3 35 be 95 23 00 be 2d ec 3c be
       -0.20631878 -0.17762755 -0.12513573 -0.18449469
000060 8d da 0a be 66 8c 34 be 84 97 13 be d1 05 63 bd
       -0.13559933 -0.17631683 -0.14413267 -0.05542547
000070 31 fc 56 bd 22 15 b3 3b 3e 99 29 bd d9 62 86 bd
       -0.052486602 0.0054651657 -0.04140591 -0.065618224
000080 05 aa de bc 13 af 6a bd 31 4d 99 3a c9 d4 67 bd
       -0.027180681 -0.05729587 0.0011695978 -0.056599412
000090 be f5 9d 3c ab 74 30 3d 86 a4 9d 3d 20 95 33 3b
       0.019282218 0.043080013 0.07697396 0.0027402118
0000a0 f0 ff 80 3c dd c4 7a 3c f6 e1 45 3c 36 87 b1 3d
       0.01574704 0.015305725 0.012077799 0.086683676
0000b0 24 26 59 3d 48 ee 40 3d f3 ff c6 3c 76 ef b8 3c
       0.05301489 0.047102243 0.024291968 0.022575121
0000c0 96 89 3a 3d cc 26 82 3d 5a 5c 97 3c 23 eb bc 3c
       0.04554137 0.06355056 0.018476654 0.02306134
0000d0 b3 47 50 bc 4d 00 6d bb bc 8a d2 bd 27 a6 de bd
       -0.012712407 -0.003616351 -0.10280368 -0.10871535
0000e0 c9 b9 88 bd a2 b6 57 bd 87 a1 ea bd 2c 71 3e bd
       -0.06676061 -0.052664407 -0.1145659 -0.046494648
0000f0 01 00 0c bd 6b 29 e1 bd c9 62 b7 bd b6 54 8c bd
       -0.03417969 -0.10994228 -0.08954389 -0.06852095
000100 fe 15 c0 bd 6d 67 98 bd 34 bb a3 bd 26 eb 12 be
       -0.09379195 -0.07441602 -0.079946905 -0.14347515
000110 62 c3 0c be 6d c8 e7 bd 78 b6 90 bd 34 8a e0 bd
       -0.13746408 -0.11317525 -0.07066053 -0.1096386
000120 10 41 61 bd 8e 6c 12 3d e5 15 48 3d fb 19 f2 3b
       -0.05499369 0.035748057 0.048849005 0.007388351
000130 d7 eb ad 3c 70 64 97 3a 75 cd 23 bc 2c ae 0e 3a
       0.021230621 0.0011550318 -0.009997715 0.0005442824
000140 52 f9 4e 3d e8 62 1c bd 4f 57 5b bd 80 e1 54 bd
       0.05053074 -0.03818026 -0.05355006 -0.051972866
000150 f5 4c 05 bd 93 1d 80 bc 50 44 21 bc 05 47 28 bd
       -0.032544095 -0.015639102 -0.009842947 -0.041083355
000160 3f 40 f7 bc fc 31 43 bb 2f 32 01 bb 4e 92 18 3d
       -0.030182002 -0.0029784432 -0.001971375 0.037248902
000170 6d f4 92 3d bc 9b 9a 3d 03 57 54 3d f0 7c 9f bb
       0.07175527 0.07549235 0.051840793 -0.0048671886
000180 a1 45 3a 3c 81 2a 57 3b 85 ef 8d 3b ea ef 7a bc
       0.01136914 0.003283173 0.0043315315 -0.015315989
000190 8c b8 a7 bd 42 fe 41 bd c6 8e 0b bd 36 3b 18 bd
       -0.081894964 -0.04736162 -0.034071706 -0.037165843
0001a0 36 94 bd 3c 46 63 70 bd 8d b6 cc bd 1a 05 41 bd
       0.023141962 -0.058688425 -0.09995756 -0.047124006
0001b0 2b de ff bc 7c 53 a8 3c 98 1a ab 3c ba dc a9 bc
       -0.031233868 0.020547621 0.020886704 -0.020735133
0001c0 08 3d 91 bc 42 fa 38 3b 05 35 5e bd 08 fe f4 bd
       -0.017729297 0.0028225337 -0.054249782 -0.11962515
0001d0 98 ce 06 bd b3 f7 a0 3d 6d ee c9 3d 59 60 0f 3e
       -0.032911867 0.07859745 0.09859929 0.14001597
0001e0 41 37 df 3d 1e ff f8 3d 54 f7 8f 3d 74 dc 92 3d
       0.10899211 0.12158035 0.07029596 0.07170954
0001f0 82 33 a8 3d 9e ba 96 3d 68 80 aa 3c f9 6e 94 bc
       0.08212949 0.07359813 0.020813182 -0.018119322
000200 90 f5 81 3d 83 eb 46 bd 62 92 1e 3c b9 03 e6 3b
       0.063456655 -0.048564445 0.009678455 0.0070194867
000210 7c ba 03 bd e0 9e 7d bc 2d 61 a0 bc f8 29 97 bd
       -0.032160267 -0.015479773 -0.019577587 -0.07381052
000220 7e 5e 26 bd 45 31 ef bd f0 d2 24 be 9f cf 04 be
       -0.04061746 -0.11679319 -0.16096091 -0.12969826
000230 87 7e 34 be d3 0d e8 bd 46 c0 fa bd 6c 89 b1 bd
       -0.17626391 -0.11330762 -0.122437045 -0.08668789
000240 30 1f 1d 3d cf 91 28 bc 70 b3 09 3d b2 9c 40 bc
       0.03835982 -0.01028867 0.03361839 -0.011756109
000250 b5 83 15 bd d0 7c 6e bd e5 d9 11 bd 80 d4 0e bd
       -0.03650256 -0.0582245 -0.03560819 -0.034870625
000260 30 6a 65 bd f3 12 8a bd 0d 42 e6 bd 15 8a 6e bd
       -0.05600947 -0.067418955 -0.11243067 -0.058237154
000270 b1 ac 3b bd e4 5c fd bd 60 c7 fb bd 23 e4 c7 bd
       -0.04581899 -0.12371233 -0.12293887 -0.097603105
000280 80 62 d9 bd 51 17 d1 bd e1 9d 47 bd 17 e3 9d bd
       -0.106144905 -0.102095254 -0.04873455 -0.077093296
000290 9c 88 cf 3b fa 03 34 bd c3 64 57 bd 54 6f e2 bc
       0.006333424 -0.043949105 -0.05258633 -0.027640976
0002a0 0c 1d 4c bd 73 25 19 bd 3f 55 af bb 81 c5 b3 3d
       -0.04983239 -0.03738923 -0.0053507383 0.08777905
0002b0 e8 21 9e 3d bf a4 02 3e 77 f5 a5 3d fb 94 9b 3d
       0.07721311 0.12758158 0.08103459 0.07596775
0002c0 e9 fa 8e 3d 04 9a f8 3d c8 48 f4 3d 09 6e b4 3d
       0.06981451 0.12138751 0.119279444 0.0881005
0002d0 0b 43 cd bd d3 8f 92 bd be 57 b2 bd 70 e7 ca bd
       -0.10022553 -0.071563385 -0.08708142 -0.099074244
0002e0 d7 f9 8a bd 0e 3b 93 bd ce 70 61 bd f6 3d b3 bd
       -0.067859344 -0.07188998 -0.05503922 -0.087520525
0002f0 ef c2 01 be 94 62 02 be c0 d9 eb bd bc c1 04 be
       -0.12672018 -0.12732917 -0.11516142 -0.12964529
000300 a4 2b c9 bd ab c8 19 be ad e1 f4 bd d9 ca 39 be
       -0.09822777 -0.15017955 -0.11957107 -0.18143786
000310 67 7c f7 bd 14 67 d1 bd c0 50 12 3e cf c6 a6 3d
       -0.12084275 -0.10224739 0.14288616 0.081433885
000320 0e a1 d9 3d c8 7d d6 3d 76 46 b0 3d 39 f7 df 3d
       0.10626422 0.104732096 0.08607189 0.10935826
000330 f7 cb b7 3d 05 96 11 3e 15 aa 08 3e b5 9e 64 3d
       0.0897445 0.14217384 0.13346131 0.055815417
000340 a8 9c 76 3d d3 c0 dd 3d d0 90 e1 3d 4f eb ac 3d
       0.060207993 0.10827794 0.11013949 0.08443319
000350 09 76 eb 3d 1d 64 82 3d 75 4e 7a 3d f0 3f bb 3d
       0.11497123 0.06366751 0.06110998 0.091430545
000360 91 1d 30 bd 64 5b bc 3c da 04 10 3d e9 e0 18 bd
       -0.042996947 0.022992797 0.035160877 -0.037323866
000370 7a 2f 48 3d 0c 46 1e 3d 18 33 40 3c e8 af b5 3c
       0.048873402 0.03864102 0.011730932 0.022178605
000380 b3 88 04 3c 63 20 83 bd 75 5f 6e bd 31 7a ea bc
       0.008089232 -0.06402662 -0.058196504 -0.028622719
000390 0e 03 4c bd 47 78 e0 bc 0b 8c 5e bc 06 39 a7 bd
       -0.0498076 -0.027401103 -0.0135831935 -0.08165173
0003a0 71 2f 52 bd 01 d6 88 bd 73 d6 49 bd 11 13 f1 bb
       -0.051314775 -0.06681443 -0.04927678 -0.007357009
0003b0 2f b7 9e 3c f3 8f 3d bd 40 f7 2d bd e9 fa 07 3d
       0.019374458 -0.04627986 -0.042472124 0.03319827
0003c0 76 f9 ec bc 74 d4 30 bc 25 1e 3e bb ba 24 e4 bb
       -0.028927546 -0.01079284 -0.0029009667 -0.006962386
0003d0 3a cb af 3d 07 0d ed 3d e8 8b 43 3d 51 f1 61 3d
       0.08583684 0.115747504 0.047740847 0.055161778
0003e0 58 ea e0 3c 25 fe ac 3c 14 d5 55 3d 69 58 82 3d
       0.027455494 0.02111728 0.05220516 0.06364519
0003f0 b8 26 f6 bd 9c 23 e0 bd c1 5c 08 be 77 c6 d0 bd
       -0.12019104 -0.10944292 -0.13316633 -0.10194104

weight f4 [64]
000000 bc a3 6a 3f b8 5c 77 3f 2c 2b 41 3f 25 10 59 3f
       0.9165609 0.9662585 0.754565 0.8479026
000010 64 03 71 3f 7a 33 57 3f 1f 20 42 3f c6 75 7e 3f
       0.941458 0.8406292 0.7583026 0.9939846
000020 e8 c4 43 3f 50 f3 49 3f 60 39 50 3f 17 90 80 3f
       0.7647233 0.7888689 0.8133755 1.0043973
000030 99 45 6c 3f bb bd 4c 3f 56 d0 55 3f 10 6f 67 3f
       0.922937 0.79977006 0.8352102 0.9040384
000040 da 85 59 3f b9 d9 59 3f 32 2c 80 3f 48 88 5b 3f
       0.84969866 0.85097843 1.0013487 0.85754824
000050 37 9f 73 3f f9 18 4e 3f 89 57 5c 3f 4f b8 85 3f
       0.9516482 0.80506855 0.8607107 1.0446872
000060 35 f2 39 3f 90 45 5c 3f e4 d5 80 3f 49 0a 84 3f
       0.72635204 0.86043644 1.0065274 1.0315639
000070 a8 16 72 3f f1 35 6b 3f b1 45 57 3f e1 8e 7d 3f
       0.9456582 0.91879183 0.84090716 0.9904614
000080 bc b7 70 3f 50 ad 64 3f cf 7e 73 3f 4d 80 62 3f
       0.94030356 0.89326954 0.9511537 0.8847702
000090 5e 7c 70 3f 5a 23 8c 3f 9b ff 6d 3f d8 b2 69 3f
       0.9393977 1.0948288 0.9296815 0.9128852
0000a0 ef c2 69 3f 55 e8 43 3f 87 84 5b 3f 38 33 68 3f
       0.9131307 0.76526386 0.85749096 0.90703154
0000b0 76 be 52 3f fa af 4f 3f c4 de 79 3f c5 55 65 3f
       0.8232187 0.81127894 0.9760554 0.89584
0000c0 c7 14 5f 3f c3 fd 72 3f 24 86 64 3f d3 a9 33 3f
       0.8714108 0.9491846 0.8926718 0.70181006
0000d0 f7 36 82 3f 68 6e 51 3f 28 b8 70 3f d9 c6 69 3f
       1.0173024 0.8180909 0.94031 0.9131904
0000e0 15 79 64 3f 10 47 80 3f ec f2 5c 3f d8 ac 60 3f
       0.89247257 1.0021687 0.8630817 0.8776374
0000f0 f5 52 63 3f c3 f9 5e 3f 30 3c 5b 3f 37 44 64 3f
       0.8879846 0.87099856 0.85638714 0.8916659

bias f4 [64]
000000 36 ab 65 3c 4e 36 2f bd b0 ca ba be b9 23 fa bd
       0.014017871 -0.0427764 -0.36482763 -0.12213845
000010 9e 9d 23 bd 14 74 bb be 75 68 60 be 93 fd 3a 3d
       -0.039945237 -0.36611998 -0.21914847 0.045651983
000020 1a 84 7f be e0 ca 35 be ef 36 30 3d 8e 0d 04 be
       -0.24952736 -0.17753172 0.04302114 -0.12895796
000030 06 de bc bd 20 91 49 be 5a e5 80 be 78 fd 4d bd
       -0.09222035 -0.19684267 -0.2517498 -0.050290555
000040 44 51 5f be a0 66 0a be 48 da 1e be 8f b2 65 be
       -0.21808344 -0.13515711 -0.15512955 -0.22431396
000050 48 53 d1 bd a2 ae 81 be 97 10 06 bd 02 10 d3 bd
       -0.10220963 -0.25328547 -0.032730665 -0.103057876
000060 be 78 5a be 5c bc 17 be 0a 98 f0 3c b7 8c b8 bd
       -0.21335122 -0.14817947 0.029369373 -0.09011214
000070 e1 ec 4f be c2 08 11 be 59 a3 85 be 90 0f c1 bd
       -0.20305206 -0.14163497 -0.26101187 -0.094267964
000080 a6 7c 41 be e9 1e ce bd 38 1e ef 3b 65 86 94 bd
       -0.18895206 -0.100644894 0.0072973035 -0.07252196
000090 14 9b 02 be 77 82 be 3c db e9 56 be 0e d5 4b be
       -0.1275447 0.02325557 -0.20987646 -0.19905493
0000a0 c1 29 2a be f6 06 21 be cd c0 22 be 9a f6 ef bd
       -0.1661749 -0.15725312 -0.1589386 -0.117169574
0000b0 17 37 98 be b0 16 3e be 4f e5 70 3d 1f 04 f4 bd
       -0.2972953 -0.18563342 0.058812436 -0.119148485
0000c0 0a 3c de bd 77 13 f5 bc d9 5f f0 bd 30 32 81 be
       -0.10851295 -0.029916508 -0.117370315 -0.25233603
0000d0 81 2b 07 be b0 27 5d be fb 15 40 bd b2 eb 37 bb
       -0.13200189 -0.21597171 -0.046895962 -0.002806407
0000e0 80 59 3b be a0 55 84 3c cd 8a 6f be 51 84 8e be
       -0.1829586 0.01615411 -0.23392792 -0.27835324
0000f0 69 5e 7a be 27 1b 15 be 00 a6 3f be 35 2c 27 be
       -0.24450077 -0.14561139 -0.18715668 -0.16325457

running_mean f4 [64]
000000 8f 4c 11 c0 ee db b7 40 9e b1 66 c0 0b f5 9e bf
       -2.2702978 5.745597 -3.604591 -1.2418531
000010 b0 7a 8d 40 a4 5a df 40 cb a6 81 40 33 19 d7 c0
       4.4212265 6.9798145 4.0516105 -6.721826
000020 a6 0e f5 c0 aa 8d 99 c0 11 47 b9 40 aa 94 e4 be
       -7.658038 -4.798543 5.789925 -0.44644672
000030 10 29 1c 40 d4 1a 54 c0 40 34 c2 c0 bf 3d 53 bf
       2.4400063 -3.3141375 -6.068878 -0.8251609
000040 74 59 84 40 55 4c e6 3e b9 63 91 40 6c ad 50 40
       4.1359196 0.44980112 4.543423 3.2605848
000050 4f e9 3f c0 5e 5b d2 40 30 4b a7 c0 fa 55 67 40
       -2.998615 6.573653 -5.227928 3.6146226
000060 e0 ec bf bf 87 90 b7 3f 0b b2 ac c0 ff f2 dc 40
       -1.4994164 1.4340981 -5.3967338 6.9046626
000070 88 a1 f2 40 a2 88 19 c0 83 82 8b 3d 99 d2 c0 40
       7.582218 -2.3989644 0.068120025 6.0257077
000080 e2 c5 2c 40 d6 2b d1 40 fa 6c b1 40 db 9c 74 c0
       2.6995778 6.536601 5.544553 -3.8220737
000090 ba ef 0b c0 8e 87 9e bf 00 a6 e8 bf 2d fd e8 bf
       -2.1865067 -1.2385118 -1.8175659 -1.8202263
0000a0 1f 87 d9 c0 e4 0c 48 c0 51 8d 1d 40 de b3 88 c0
       -6.7977443 -3.1257868 2.4617503 -4.2719564
0000b0 99 9a b9 bf 70 ab c8 bd 6f d2 55 c0 d9 14 90 3f
       -1.4500304 -0.09798324 -3.3409688 1.1256362
0000c0 98 f5 25 c0 8c 90 91 3f 76 b6 25 c0 9a 8c 3d 3e
       -2.5931149 1.1372237 -2.5892615 0.18510666
0000d0 b6 73 66 bf 72 ae 74 c0 84 32 0d 40 f7 3d 27 c0
       -0.9002031 -3.8231473 2.2062082 -2.613157
0000e0 63 bb e3 40 50 d0 53 c0 3c ff 27 40 d0 fe d6 40
       7.1166244 -3.3095894 2.6249533 6.718605
0000f0 fd 7f 9b 40 7a 04 ca bd 67 0d c0 40 e6 96 2f bf
       4.8593736 -0.09864135 6.001636 -0.6858963

running_var f4 [64]
000000 12 66 2e 42 2f 53 58 42 df 43 39 42 9b 77 3e 42
       43.599678 54.081234 46.31628 47.616802
000010 47 a0 55 42 ad cc 7b 42 b6 51 f0 41 42 aa bb 42
       53.40652 62.94988 30.039898 93.832535
000020 b5 0f 31 42 de 41 8f 42 da 16 82 42 29 31 39 42
       44.26534 71.62865 65.04463 46.298008
000030 78 e8 b5 42 1b ab ca 41 a1 c3 97 41 0f 1f 32 42
       90.95404 25.333548 18.970522 44.53033
000040 19 2b ba 42 be 08 3f 42 3c e8 97 42 b8 14 3a 42
       93.084175 47.758537 75.95358 46.520233
000050 fd 47 45 42 88 0e 50 42 30 f5 79 42 80 f5 8b 42
       49.3203 52.01419 62.48944 69.97949
000060 01 3e c6 41 cf ba 4c 42 bc 17 63 42 6d ec 62 42
       24.780275 51.18243 56.77318 56.730885
000070 ae 84 34 42 e7 c8 11 42 5e 5e 6b 42 da 49 ae 42
       45.12957 36.446194 58.842155 87.14424
000080 e2 d4 96 42 4f 32 9c 42 23 c0 81 42 50 65 89 42
       75.41579 78.09826 64.87527 68.697876
000090 e1 6d 34 42 ef 2f 86 42 9f b4 45 42 bd 9f 46 42
       45.107304 67.09362 49.426388 49.655994
0000a0 bf af 0a 42 7e fd 8f 42 dd 60 76 41 9c db 32 42
       34.671627 71.9951 15.398648 44.714462
0000b0 7a 4c 29 42 2e 26 28 42 92 11 92 42 1c c3 d7 41
       42.324684 42.037285 73.03432 26.970268
0000c0 95 04 72 42 c1 ad 2b 42 f0 0f 38 42 5d 31 fc 41
       60.504475 42.91968 46.015564 31.524103
0000d0 af 2a 70 42 0f 16 92 41 7e ad 55 42 23 8f 43 42
       60.041683 18.26077 53.419426 48.889782
0000e0 dc 94 73 42 e8 ae b1 42 60 ff e1 41 de 0e 63 42
       60.89537 88.84161 28.249695 56.76452
0000f0 75 8d 90 41 12 1c df 41 6c aa 8f 42 67 ce 2d 42
       18.06907 27.888706 71.832855 43.451565

weight f4 [64, 64, 3, 3]
000000 a3 22 49 bd 97 b1 d7 bc 1c 7a 73 bd ea 45 ae bd
       -0.049105298 -0.026329799 -0.059442624 -0.08509429
000010 61 78 6a bd 3b c1 e1 bc 5c 8f cb bd 18 64 14 bd
       -0.05724371 -0.02755796 -0.09939453 -0.03622827
000020 e9 64 e6 bc 83 15 b2 bc 30 71 0a 3c 76 60 de bc
       -0.02812429 -0.021738773 0.008449838 -0.027145606
000030 e5 5a 92 3a fd 16 a7 3c 2e 8e d2 ba 73 f3 ad bb
       0.0011166005 0.020396704 -0.0016064101 -0.0053085624
000040 5b 42 de bc 6d 49 4e bb 18 25 2a bd 69 cc ad bd
       -0.02713125 -0.003147687 -0.04153928 -0.08486254
000050 0d d7 21 bd 10 58 99 bd 8e 3f 09 bd a7 c3 9e bd
       -0.03951173 -0.074875 -0.033507876 -0.077521615
000060 4c 46 07 bd b4 8b 5d bd 4a 25 63 bd 53 66 86 3c
       -0.033026025 -0.05408831 -0.055455483 0.016406214
000070 81 3b 9b bb 94 01 b6 bc 8f ae 67 3c 9f 04 e3 bc
       -0.004737318 -0.02221755 0.014140739 -0.027712164
000080 61 1d 6b 3c 15 7d 97 3c 56 b4 44 bd 75 a4 13 3c
       0.014350266 0.018492261 -0.048023544 0.009011378
000090 19 ad 0c bd 79 94 a4 bc 92 ac 0a bb 24 50 86 bd
       -0.034344766 -0.020090329 -0.0021159989 -0.06558254
0000a0 f9 d4 dc bd b2 3a 1a bd 15 7f a1 bb 6c 80 43 bc
       -0.10782809 -0.037653632 -0.0049284794 -0.011932474
0000b0 03 51 e1 3b 48 db 9f bd 7b fc 9d bd 2a 70 18 bd
       0.0068761124 -0.078054965 -0.077141725 -0.037216343
0000c0 d1 95 3f bd c7 0a 8e bd ce 26 20 bc 18 79 28 bd
       -0.046773735 -0.06935649 -0.009774877 -0.04113111
0000d0 38 f2 1c bd b9 dc 3a bd 1b bf 24 3d da f7 b2 ba
       -0.038316935 -0.045620654 0.040221315 -0.0013654188
0000e0 02 d9 75 3d e7 e6 32 3d 48 ac 32 3d bb 26 85 3d
       0.060021408 0.043677237 0.04362133 0.06501528
0000f0 ed 63 a6 3d 66 66 d1 3c ff 34 41 3d ec 45 0b be
       0.08124528 0.025561523 0.04716968 -0.13600892
000100 de 2f fd bd 64 cc af bd 31 dc 1a be 71 92 b8 bd
       -0.123626456 -0.08583906 -0.15123059 -0.090123065
000110 72 6a 03 be b9 ff 15 be 8b aa a0 bd 02 57 ff bd
       -0.12833574 -0.14648332 -0.078450285 -0.12467767
000120 8d 49 8f 3d fa 7f a6 3d 0c 6f 7f 3d d5 3c cb 3d
       0.069964506 0.08129878 0.062361762 0.09923712
000130 7d 06 64 bc a6 5d 28 3d 9c e2 f4 3d 81 5f 0a 3e
       -0.013917563 0.041104935 0.11957285 0.13512994
000140 e1 23 ae 3d 3e c0 85 bc 5b 85 40 bd c7 11 c1 bc
       0.08502937 -0.01632702 -0.047002178 -0.023568047
000150 41 46 03 3c 2b 0c dd 3c a3 52 62 bb 28 2d bf 3c
       0.008012355 0.026983341 -0.0034534119 0.023336962
000160 31 93 60 bc 8b 50 59 bd 00 20 19 3d f5 45 05 3d
       -0.013706968 -0.053055327 0.037384033 0.03253742
000170 d0 e4 e9 3c 32 7f 60 3d b8 55 fb 3b b4 b9 97 3d
       0.02855149 0.054808803 0.0076701306 0.07408467
000180 e8 eb 90 bc 03 a1 67 3c e6 9d 68 3d 64 a9 21 be
       -0.017690614 0.014137509 0.05679121 -0.15787274
000190 95 44 a6 bd 23 2c a1 bd 51 8b e6 bd 3c f6 b6 bc
       -0.0811855 -0.078697465 -0.11257041 -0.02233421
0001a0 d9 c9 99 bc e6 95 95 bd 40 88 54 bd 4a 38 c0 3b
       -0.018773006 -0.073039815 -0.05188775 0.005866085
0001b0 c4 59 9a bd 9b 9c ce bd 1c a0 be bd e0 95 94 bd
       -0.07536653 -0.10088464 -0.09307882 -0.07255149
0001c0 cd d8 55 bd f5 8c a6 bd d4 a2 d2 bd 4b aa a9 bd
       -0.05220871 -0.08132354 -0.10284963 -0.08284434
0001d0 48 37 a8 bd c4 fc 04 bd 71 55 73 bc c9 7d 25 bb
       -0.08213669 -0.03246762 -0.014851914 -0.0025251976
0001e0 da 9b c2 bd 67 6f 00 bd 3c 70 8f bc b8 96 07 bd
       -0.095023826 -0.03135624 -0.017509572 -0.03310272
0001f0 a6 ff 16 bd 02 9f 1d bd da 6f 94 bd 8e f5 05 be
       -0.0368649 -0.03848172 -0.072478965 -0.13081953
000200 a6 89 11 be 04 b6 0f be e7 03 f5 bd f9 03 8f bd
       -0.14212665 -0.14034277 -0.11963635 -0.069831796
000210 03 6e 00 be d8 bb 01 be a4 40 e8 bd ae a9 74 bc
       -0.12541966 -0.12669313 -0.11340454 -0.014933033
000220 8b ee 26 bd f2 2e 23 3d 6a 18 34 bc 75 d4 40 3d
       -0.040754836 0.039839692 -0.010992149 0.047077615
000230 22 c4 04 3b 78 08 a1 3c f0 fa 94 bb 7e 55 26 3c
       0.0020258506 0.019657359 -0.0045465156 0.010152219
000240 e0 e7 7a 3c 4e f5 1c bd 87 9c 60 3d 84 de 0c bd
       0.015314072 -0.03831988 0.054836776 -0.034391895
000250 da 9b 19 3d b6 16 75 3d e4 d8 4c 3c 83 9c 30 3d
       0.037502147 0.059836112 0.012502883 0.04311801
000260 91 1c 1d 3d dd 95 2e bd c4 9d d5 bc 92 bc be bc
       0.03835732 -0.04262339 -0.026076205 -0.023283277
000270 11 8e 79 bc 64 a4 85 bc 2d 96 02 3d a5 73 9c bc
       -0.015231625 -0.01631374 0.0318815 -0.019098112
000280 b9 25 e3 3c 5b ad 20 3d 1d ce c3 bd 23 97 db bd
       0.027727949 0.039227825 -0.09560797 -0.107221864
000290 50 c5 ce bd 00 33 96 bd 4b 95 9f bd ff 2c 71 bd
       -0.10096228 -0.07333946 -0.07792147 -0.058880802
0002a0 75 25 fc bd f1 5d ea bd f8 66 9b bd 4b 4f a4 bb
       -0.12311832 -0.11443699 -0.07587999 -0.0050143353
0002b0 e6 f4 39 bd dd 71 77 bc 7a 42 23 3c fe af 11 3d
       -0.04539957 -0.015102831 0.00996458 0.03556823
0002c0 98 83 33 39 0b 40 99 3c 64 46 cc ba 4b 79 2b 3d
       0.00017119793 0.018707296 -0.0015584943 0.04186372
0002d0 69 14 1e bd 7f 94 81 3c 86 01 e0 3c d6 44 a1 bd
       -0.038593683 0.015817879 0.027344476 -0.078744575
0002e0 92 c0 70 3b f6 bb 52 3c 83 a3 54 3a 2c a7 cc bc
       0.0036735875 0.012862196 0.00081115233 -0.024982058
0002f0 8e d7 98 3d 99 b4 82 bd 13 30 68 bd b0 26 f9 bb
       0.07462989 -0.063821025 -0.056686472 -0.007603489
000300 a2 a7 05 bd 70 f9 66 3b a0 63 52 3c 97 b1 70 bd
       -0.03263057 0.0035243891 0.012841135 -0.058763113
000310 bf 57 96 3c fe 23 88 bc c3 a9 29 bd f2 d7 2d bd
       0.018352387 -0.016618725 -0.041421663 -0.04244227
000320 c0 7d 32 3c 45 e3 31 bd e1 ea df bc 13 b7 31 bd
       0.010894239 -0.04342963 -0.027333679 -0.043387484
000330 71 a3 4b bd 29 ea ad bd ec c9 1b bd 89 c0 bd bd
       -0.049716417 -0.08491928 -0.038034365 -0.09265239
000340 88 27 f1 bd 9e 3b bc bd 5f 2d e2 bd be 5b b6 bd
       -0.11775118 -0.091910586 -0.1104381 -0.08904217
000350 13 f8 c6 bd 07 56 bf bd 8e ca c5 bd b3 09 cf bd
       -0.09715285 -0.0934258 -0.09657775 -0.10109272
000360 22 4d c3 bd 6c a4 ad bd d4 6a c4 bd 26 94 da bd
       -0.09536196 -0.084786266 -0.09590688 -0.10672788
000370 ec c9 63 bd be ad d1 bd a6 be 82 bd b7 ca 83 bd
       -0.05561249 -0.10238217 -0.063840196 -0.06435149
000380 4d 75 d7 bd 23 59 34 3d 83 76 1c 3d 9e 24 02 3d
       -0.1052042 0.04403032 0.03819896 0.031773202
000390 fe 9e c3 3c ff bc 83 3c 45 eb 50 3d 29 2c d5 3c
       0.023879524 0.016081331 0.05100562 0.026022034
0003a0 59 c2 97 3d ae 32 af 3d 37 f4 a7 bd 94 0d 70 bd
       0.07410116 0.08554588 -0.08200877 -0.0586067
0003b0 97 65 9a bd 6d fc 13 bd 84 46 d9 bc c4 a2 b4 bd
       -0.07538908 -0.036129404 -0.026522882 -0.088201076
0003c0 6b 70 ad bd e7 91 92 bd 87 dd 11 bd 9b ad d4 bd
       -0.08468708 -0.07156735 -0.035611656 -0.10384675
0003d0 32 42 ef bd 63 5b af bd 12 9a 9a bd 06 19 e0 bd
       -0.11682548 -0.085623525 -0.07548918 -0.10942273
0003e0 98 7d 58 bd f5 6d 94 bd 35 b8 a9 bd 41 cc 91 3b
       -0.05285415 -0.07247535 -0.08287088 0.004449398
0003f0 8b c5 92 bd 38 fb 01 bd a0 a4 a8 3d 0b ae ab bd
       -0.071665846 -0.03173372 0.08234525 -0.083828054
